{"format": "graph-model", "generatedBy": "2.3.1", "convertedBy": "TensorFlow.js Converter v2.7.0", "userDefinedMetadata": {"signature": {"outputs": {"scout-model-8.6.0/Postprocessor/raw_box_scores:0": {"name": "scout-model-8.6.0/Postprocessor/raw_box_scores:0"}, "scout-model-8.6.0/Postprocessor/raw_box_locations:0": {"name": "scout-model-8.6.0/Postprocessor/raw_box_locations:0"}}}}, "modelTopology": {"node": [{"name": "ConstantFolding/scout-model-8.6.0/Postprocessor/Decode/truediv_4_recip", "op": "Const", "attr": {"value": {"tensor": {"dtype": "DT_FLOAT", "tensorShape": {}}}, "dtype": {"type": "DT_FLOAT"}}}, {"name": "ConstantFolding/scout-model-8.6.0/Postprocessor/Decode/truediv_5_recip", "op": "Const", "attr": {"value": {"tensor": {"dtype": "DT_FLOAT", "tensorShape": {}}}, "dtype": {"type": "DT_FLOAT"}}}, {"name": "ConstantFolding/scout-model-8.6.0/Postprocessor/Decode/truediv_recip", "op": "Const", "attr": {"value": {"tensor": {"dtype": "DT_FLOAT", "tensorShape": {}}}, "dtype": {"type": "DT_FLOAT"}}}, {"name": "ConstantFolding/scout-model-8.6.0/Postprocessor/Decode/get_center_coordinates_and_sizes/truediv_recip", "op": "Const", "attr": {"value": {"tensor": {"dtype": "DT_FLOAT", "tensorShape": {}}}, "dtype": {"type": "DT_FLOAT"}}}, {"name": "ConstantFolding/scout-model-8.6.0/Postprocessor/Decode/truediv_2_recip", "op": "Const", "attr": {"value": {"tensor": {"dtype": "DT_FLOAT", "tensorShape": {}}}, "dtype": {"type": "DT_FLOAT"}}}, {"name": "ConstantFolding/scout-model-8.6.0/Postprocessor/Decode/truediv_6_recip", "op": "Const", "attr": {"dtype": {"type": "DT_FLOAT"}, "value": {"tensor": {"dtype": "DT_FLOAT", "tensorShape": {}}}}}, {"name": "ConstantFolding/scout-model-8.6.0/Postprocessor/Decode/truediv_1_recip", "op": "Const", "attr": {"value": {"tensor": {"dtype": "DT_FLOAT", "tensorShape": {}}}, "dtype": {"type": "DT_FLOAT"}}}, {"name": "ConstantFolding/scout-model-8.6.0/Postprocessor/Decode/get_center_coordinates_and_sizes/truediv_1_recip", "op": "Const", "attr": {"value": {"tensor": {"dtype": "DT_FLOAT", "tensorShape": {}}}, "dtype": {"type": "DT_FLOAT"}}}, {"name": "scout-model-8.6.0/Postprocessor/Reshape_1/shape", "op": "Const", "attr": {"value": {"tensor": {"dtype": "DT_INT32", "tensorShape": {"dim": [{"size": "2"}]}}}, "dtype": {"type": "DT_INT32"}}}, {"name": "ConstantFolding/scout-model-8.6.0/Postprocessor/Decode/truediv_3_recip", "op": "Const", "attr": {"value": {"tensor": {"dtype": "DT_FLOAT", "tensorShape": {}}}, "dtype": {"type": "DT_FLOAT"}}}, {"name": "scout-model-8.6.0/Postprocessor/ExpandDims", "op": "Const", "attr": {"value": {"tensor": {"dtype": "DT_FLOAT", "tensorShape": {"dim": [{"size": "1"}, {"size": "1917"}, {"size": "4"}]}}}, "dtype": {"type": "DT_FLOAT"}}}, {"name": "scout-model-8.6.0/Postprocessor/Tile/multiples/1", "op": "Const", "attr": {"value": {"tensor": {"dtype": "DT_INT32", "tensorShape": {}}}, "dtype": {"type": "DT_INT32"}}}, {"name": "scout-model-8.6.0/Postprocessor/Tile/multiples/2", "op": "Const", "attr": {"value": {"tensor": {"dtype": "DT_INT32", "tensorShape": {}}}, "dtype": {"type": "DT_INT32"}}}, {"name": "scout-model-8.6.0/Postprocessor/Reshape/shape", "op": "Const", "attr": {"value": {"tensor": {"dtype": "DT_INT32", "tensorShape": {"dim": [{"size": "2"}]}}}, "dtype": {"type": "DT_INT32"}}}, {"name": "ConstantFolding/scout-model-8.6.0/Postprocessor/Decode/truediv_7_recip", "op": "Const", "attr": {"value": {"tensor": {"dtype": "DT_FLOAT", "tensorShape": {}}}, "dtype": {"type": "DT_FLOAT"}}}, {"name": "scout-model-8.6.0/Postprocessor/strided_slice/stack", "op": "Const", "attr": {"value": {"tensor": {"dtype": "DT_INT32", "tensorShape": {"dim": [{"size": "1"}]}}}, "dtype": {"type": "DT_INT32"}}}, {"name": "scout-model-8.6.0/Postprocessor/strided_slice/stack_1", "op": "Const", "attr": {"value": {"tensor": {"dtype": "DT_INT32", "tensorShape": {"dim": [{"size": "1"}]}}}, "dtype": {"type": "DT_INT32"}}}, {"name": "scout-model-8.6.0/Postprocessor/strided_slice/stack_2", "op": "Const", "attr": {"value": {"tensor": {"dtype": "DT_INT32", "tensorShape": {"dim": [{"size": "1"}]}}}, "dtype": {"type": "DT_INT32"}}}, {"name": "scout-model-8.6.0/Postprocessor/stack/1", "op": "Const", "attr": {"value": {"tensor": {"dtype": "DT_INT32", "tensorShape": {}}}, "dtype": {"type": "DT_INT32"}}}, {"name": "scout-model-8.6.0/Postprocessor/stack/2", "op": "Const", "attr": {"dtype": {"type": "DT_INT32"}, "value": {"tensor": {"dtype": "DT_INT32", "tensorShape": {}}}}}, {"name": "scout-model-8.6.0/BoxPredictor_0/ClassPredictor/weights", "op": "Const", "attr": {"dtype": {"type": "DT_FLOAT"}, "value": {"tensor": {"dtype": "DT_FLOAT", "tensorShape": {"dim": [{"size": "1"}, {"size": "1"}, {"size": "512"}, {"size": "36"}]}}}}}, {"name": "scout-model-8.6.0/BoxPredictor_0/ClassPredictor/biases", "op": "Const", "attr": {"value": {"tensor": {"dtype": "DT_FLOAT", "tensorShape": {"dim": [{"size": "36"}]}}}, "dtype": {"type": "DT_FLOAT"}}}, {"name": "scout-model-8.6.0/BoxPredictor_0/stack_1/1", "op": "Const", "attr": {"value": {"tensor": {"dtype": "DT_INT32", "tensorShape": {}}}, "dtype": {"type": "DT_INT32"}}}, {"name": "scout-model-8.6.0/BoxPredictor_0/stack_1/2", "op": "Const", "attr": {"value": {"tensor": {"dtype": "DT_INT32", "tensorShape": {}}}, "dtype": {"type": "DT_INT32"}}}, {"name": "scout-model-8.6.0/BoxPredictor_1/ClassPredictor/weights", "op": "Const", "attr": {"value": {"tensor": {"dtype": "DT_FLOAT", "tensorShape": {"dim": [{"size": "1"}, {"size": "1"}, {"size": "1024"}, {"size": "72"}]}}}, "dtype": {"type": "DT_FLOAT"}}}, {"name": "scout-model-8.6.0/BoxPredictor_1/ClassPredictor/biases", "op": "Const", "attr": {"value": {"tensor": {"dtype": "DT_FLOAT", "tensorShape": {"dim": [{"size": "72"}]}}}, "dtype": {"type": "DT_FLOAT"}}}, {"name": "scout-model-8.6.0/BoxPredictor_1/stack_1/1", "op": "Const", "attr": {"dtype": {"type": "DT_INT32"}, "value": {"tensor": {"dtype": "DT_INT32", "tensorShape": {}}}}}, {"name": "scout-model-8.6.0/BoxPredictor_1/stack_1/2", "op": "Const", "attr": {"value": {"tensor": {"dtype": "DT_INT32", "tensorShape": {}}}, "dtype": {"type": "DT_INT32"}}}, {"name": "scout-model-8.6.0/BoxPredictor_2/ClassPredictor/weights", "op": "Const", "attr": {"value": {"tensor": {"dtype": "DT_FLOAT", "tensorShape": {"dim": [{"size": "1"}, {"size": "1"}, {"size": "512"}, {"size": "72"}]}}}, "dtype": {"type": "DT_FLOAT"}}}, {"name": "scout-model-8.6.0/BoxPredictor_2/ClassPredictor/biases", "op": "Const", "attr": {"value": {"tensor": {"dtype": "DT_FLOAT", "tensorShape": {"dim": [{"size": "72"}]}}}, "dtype": {"type": "DT_FLOAT"}}}, {"name": "scout-model-8.6.0/BoxPredictor_2/stack_1/1", "op": "Const", "attr": {"value": {"tensor": {"dtype": "DT_INT32", "tensorShape": {}}}, "dtype": {"type": "DT_INT32"}}}, {"name": "scout-model-8.6.0/BoxPredictor_2/stack_1/2", "op": "Const", "attr": {"value": {"tensor": {"dtype": "DT_INT32", "tensorShape": {}}}, "dtype": {"type": "DT_INT32"}}}, {"name": "scout-model-8.6.0/BoxPredictor_3/ClassPredictor/weights", "op": "Const", "attr": {"value": {"tensor": {"dtype": "DT_FLOAT", "tensorShape": {"dim": [{"size": "1"}, {"size": "1"}, {"size": "256"}, {"size": "72"}]}}}, "dtype": {"type": "DT_FLOAT"}}}, {"name": "scout-model-8.6.0/BoxPredictor_3/ClassPredictor/biases", "op": "Const", "attr": {"value": {"tensor": {"dtype": "DT_FLOAT", "tensorShape": {"dim": [{"size": "72"}]}}}, "dtype": {"type": "DT_FLOAT"}}}, {"name": "scout-model-8.6.0/BoxPredictor_3/stack_1/1", "op": "Const", "attr": {"value": {"tensor": {"dtype": "DT_INT32", "tensorShape": {}}}, "dtype": {"type": "DT_INT32"}}}, {"name": "scout-model-8.6.0/BoxPredictor_3/stack_1/2", "op": "Const", "attr": {"dtype": {"type": "DT_INT32"}, "value": {"tensor": {"dtype": "DT_INT32", "tensorShape": {}}}}}, {"name": "scout-model-8.6.0/BoxPredictor_4/ClassPredictor/weights", "op": "Const", "attr": {"value": {"tensor": {"dtype": "DT_FLOAT", "tensorShape": {"dim": [{"size": "1"}, {"size": "1"}, {"size": "256"}, {"size": "72"}]}}}, "dtype": {"type": "DT_FLOAT"}}}, {"name": "scout-model-8.6.0/BoxPredictor_4/ClassPredictor/biases", "op": "Const", "attr": {"dtype": {"type": "DT_FLOAT"}, "value": {"tensor": {"dtype": "DT_FLOAT", "tensorShape": {"dim": [{"size": "72"}]}}}}}, {"name": "scout-model-8.6.0/BoxPredictor_4/stack_1/1", "op": "Const", "attr": {"value": {"tensor": {"dtype": "DT_INT32", "tensorShape": {}}}, "dtype": {"type": "DT_INT32"}}}, {"name": "scout-model-8.6.0/BoxPredictor_4/stack_1/2", "op": "Const", "attr": {"value": {"tensor": {"dtype": "DT_INT32", "tensorShape": {}}}, "dtype": {"type": "DT_INT32"}}}, {"name": "scout-model-8.6.0/BoxPredictor_5/ClassPredictor/weights", "op": "Const", "attr": {"value": {"tensor": {"dtype": "DT_FLOAT", "tensorShape": {"dim": [{"size": "1"}, {"size": "1"}, {"size": "128"}, {"size": "72"}]}}}, "dtype": {"type": "DT_FLOAT"}}}, {"name": "scout-model-8.6.0/BoxPredictor_5/ClassPredictor/biases", "op": "Const", "attr": {"value": {"tensor": {"dtype": "DT_FLOAT", "tensorShape": {"dim": [{"size": "72"}]}}}, "dtype": {"type": "DT_FLOAT"}}}, {"name": "scout-model-8.6.0/BoxPredictor_5/stack_1/1", "op": "Const", "attr": {"dtype": {"type": "DT_INT32"}, "value": {"tensor": {"dtype": "DT_INT32", "tensorShape": {}}}}}, {"name": "scout-model-8.6.0/BoxPredictor_5/stack_1/2", "op": "Const", "attr": {"value": {"tensor": {"dtype": "DT_INT32", "tensorShape": {}}}, "dtype": {"type": "DT_INT32"}}}, {"name": "scout-model-8.6.0/BoxPredictor_4/BoxEncodingPredictor/weights", "op": "Const", "attr": {"value": {"tensor": {"dtype": "DT_FLOAT", "tensorShape": {"dim": [{"size": "1"}, {"size": "1"}, {"size": "256"}, {"size": "24"}]}}}, "dtype": {"type": "DT_FLOAT"}}}, {"name": "scout-model-8.6.0/BoxPredictor_4/BoxEncodingPredictor/biases", "op": "Const", "attr": {"value": {"tensor": {"dtype": "DT_FLOAT", "tensorShape": {"dim": [{"size": "24"}]}}}, "dtype": {"type": "DT_FLOAT"}}}, {"name": "scout-model-8.6.0/BoxPredictor_4/strided_slice/stack", "op": "Const", "attr": {"value": {"tensor": {"dtype": "DT_INT32", "tensorShape": {"dim": [{"size": "1"}]}}}, "dtype": {"type": "DT_INT32"}}}, {"name": "scout-model-8.6.0/BoxPredictor_4/strided_slice/stack_1", "op": "Const", "attr": {"value": {"tensor": {"dtype": "DT_INT32", "tensorShape": {"dim": [{"size": "1"}]}}}, "dtype": {"type": "DT_INT32"}}}, {"name": "scout-model-8.6.0/BoxPredictor_4/strided_slice/stack_2", "op": "Const", "attr": {"dtype": {"type": "DT_INT32"}, "value": {"tensor": {"dtype": "DT_INT32", "tensorShape": {"dim": [{"size": "1"}]}}}}}, {"name": "scout-model-8.6.0/BoxPredictor_4/stack/1", "op": "Const", "attr": {"value": {"tensor": {"dtype": "DT_INT32", "tensorShape": {}}}, "dtype": {"type": "DT_INT32"}}}, {"name": "scout-model-8.6.0/BoxPredictor_4/stack/2", "op": "Const", "attr": {"value": {"tensor": {"dtype": "DT_INT32", "tensorShape": {}}}, "dtype": {"type": "DT_INT32"}}}, {"name": "scout-model-8.6.0/BoxPredictor_4/stack/3", "op": "Const", "attr": {"value": {"tensor": {"dtype": "DT_INT32", "tensorShape": {}}}, "dtype": {"type": "DT_INT32"}}}, {"name": "scout-model-8.6.0/BoxPredictor_2/BoxEncodingPredictor/weights", "op": "Const", "attr": {"dtype": {"type": "DT_FLOAT"}, "value": {"tensor": {"dtype": "DT_FLOAT", "tensorShape": {"dim": [{"size": "1"}, {"size": "1"}, {"size": "512"}, {"size": "24"}]}}}}}, {"name": "scout-model-8.6.0/BoxPredictor_2/BoxEncodingPredictor/biases", "op": "Const", "attr": {"value": {"tensor": {"dtype": "DT_FLOAT", "tensorShape": {"dim": [{"size": "24"}]}}}, "dtype": {"type": "DT_FLOAT"}}}, {"name": "scout-model-8.6.0/BoxPredictor_2/strided_slice/stack", "op": "Const", "attr": {"value": {"tensor": {"dtype": "DT_INT32", "tensorShape": {"dim": [{"size": "1"}]}}}, "dtype": {"type": "DT_INT32"}}}, {"name": "scout-model-8.6.0/BoxPredictor_2/strided_slice/stack_1", "op": "Const", "attr": {"value": {"tensor": {"dtype": "DT_INT32", "tensorShape": {"dim": [{"size": "1"}]}}}, "dtype": {"type": "DT_INT32"}}}, {"name": "scout-model-8.6.0/BoxPredictor_2/strided_slice/stack_2", "op": "Const", "attr": {"value": {"tensor": {"dtype": "DT_INT32", "tensorShape": {"dim": [{"size": "1"}]}}}, "dtype": {"type": "DT_INT32"}}}, {"name": "scout-model-8.6.0/BoxPredictor_2/stack/1", "op": "Const", "attr": {"value": {"tensor": {"dtype": "DT_INT32", "tensorShape": {}}}, "dtype": {"type": "DT_INT32"}}}, {"name": "scout-model-8.6.0/BoxPredictor_2/stack/2", "op": "Const", "attr": {"value": {"tensor": {"dtype": "DT_INT32", "tensorShape": {}}}, "dtype": {"type": "DT_INT32"}}}, {"name": "scout-model-8.6.0/BoxPredictor_2/stack/3", "op": "Const", "attr": {"value": {"tensor": {"dtype": "DT_INT32", "tensorShape": {}}}, "dtype": {"type": "DT_INT32"}}}, {"name": "scout-model-8.6.0/BoxPredictor_1/BoxEncodingPredictor/weights", "op": "Const", "attr": {"value": {"tensor": {"dtype": "DT_FLOAT", "tensorShape": {"dim": [{"size": "1"}, {"size": "1"}, {"size": "1024"}, {"size": "24"}]}}}, "dtype": {"type": "DT_FLOAT"}}}, {"name": "scout-model-8.6.0/BoxPredictor_1/BoxEncodingPredictor/biases", "op": "Const", "attr": {"dtype": {"type": "DT_FLOAT"}, "value": {"tensor": {"dtype": "DT_FLOAT", "tensorShape": {"dim": [{"size": "24"}]}}}}}, {"name": "scout-model-8.6.0/BoxPredictor_1/strided_slice/stack", "op": "Const", "attr": {"value": {"tensor": {"dtype": "DT_INT32", "tensorShape": {"dim": [{"size": "1"}]}}}, "dtype": {"type": "DT_INT32"}}}, {"name": "scout-model-8.6.0/BoxPredictor_1/strided_slice/stack_1", "op": "Const", "attr": {"value": {"tensor": {"dtype": "DT_INT32", "tensorShape": {"dim": [{"size": "1"}]}}}, "dtype": {"type": "DT_INT32"}}}, {"name": "scout-model-8.6.0/BoxPredictor_1/strided_slice/stack_2", "op": "Const", "attr": {"value": {"tensor": {"dtype": "DT_INT32", "tensorShape": {"dim": [{"size": "1"}]}}}, "dtype": {"type": "DT_INT32"}}}, {"name": "scout-model-8.6.0/BoxPredictor_1/stack/1", "op": "Const", "attr": {"value": {"tensor": {"dtype": "DT_INT32", "tensorShape": {}}}, "dtype": {"type": "DT_INT32"}}}, {"name": "scout-model-8.6.0/BoxPredictor_1/stack/2", "op": "Const", "attr": {"value": {"tensor": {"dtype": "DT_INT32", "tensorShape": {}}}, "dtype": {"type": "DT_INT32"}}}, {"name": "scout-model-8.6.0/BoxPredictor_1/stack/3", "op": "Const", "attr": {"value": {"tensor": {"dtype": "DT_INT32", "tensorShape": {}}}, "dtype": {"type": "DT_INT32"}}}, {"name": "scout-model-8.6.0/BoxPredictor_3/BoxEncodingPredictor/weights", "op": "Const", "attr": {"value": {"tensor": {"dtype": "DT_FLOAT", "tensorShape": {"dim": [{"size": "1"}, {"size": "1"}, {"size": "256"}, {"size": "24"}]}}}, "dtype": {"type": "DT_FLOAT"}}}, {"name": "scout-model-8.6.0/BoxPredictor_3/BoxEncodingPredictor/biases", "op": "Const", "attr": {"value": {"tensor": {"dtype": "DT_FLOAT", "tensorShape": {"dim": [{"size": "24"}]}}}, "dtype": {"type": "DT_FLOAT"}}}, {"name": "scout-model-8.6.0/BoxPredictor_3/strided_slice/stack", "op": "Const", "attr": {"value": {"tensor": {"dtype": "DT_INT32", "tensorShape": {"dim": [{"size": "1"}]}}}, "dtype": {"type": "DT_INT32"}}}, {"name": "scout-model-8.6.0/BoxPredictor_3/strided_slice/stack_1", "op": "Const", "attr": {"value": {"tensor": {"dtype": "DT_INT32", "tensorShape": {"dim": [{"size": "1"}]}}}, "dtype": {"type": "DT_INT32"}}}, {"name": "scout-model-8.6.0/BoxPredictor_3/strided_slice/stack_2", "op": "Const", "attr": {"value": {"tensor": {"dtype": "DT_INT32", "tensorShape": {"dim": [{"size": "1"}]}}}, "dtype": {"type": "DT_INT32"}}}, {"name": "scout-model-8.6.0/BoxPredictor_3/stack/1", "op": "Const", "attr": {"dtype": {"type": "DT_INT32"}, "value": {"tensor": {"dtype": "DT_INT32", "tensorShape": {}}}}}, {"name": "scout-model-8.6.0/BoxPredictor_3/stack/2", "op": "Const", "attr": {"value": {"tensor": {"dtype": "DT_INT32", "tensorShape": {}}}, "dtype": {"type": "DT_INT32"}}}, {"name": "scout-model-8.6.0/BoxPredictor_3/stack/3", "op": "Const", "attr": {"value": {"tensor": {"dtype": "DT_INT32", "tensorShape": {}}}, "dtype": {"type": "DT_INT32"}}}, {"name": "scout-model-8.6.0/BoxPredictor_0/BoxEncodingPredictor/weights", "op": "Const", "attr": {"value": {"tensor": {"dtype": "DT_FLOAT", "tensorShape": {"dim": [{"size": "1"}, {"size": "1"}, {"size": "512"}, {"size": "12"}]}}}, "dtype": {"type": "DT_FLOAT"}}}, {"name": "scout-model-8.6.0/BoxPredictor_0/BoxEncodingPredictor/biases", "op": "Const", "attr": {"value": {"tensor": {"dtype": "DT_FLOAT", "tensorShape": {"dim": [{"size": "12"}]}}}, "dtype": {"type": "DT_FLOAT"}}}, {"name": "scout-model-8.6.0/BoxPredictor_0/strided_slice/stack", "op": "Const", "attr": {"dtype": {"type": "DT_INT32"}, "value": {"tensor": {"dtype": "DT_INT32", "tensorShape": {"dim": [{"size": "1"}]}}}}}, {"name": "scout-model-8.6.0/BoxPredictor_0/strided_slice/stack_1", "op": "Const", "attr": {"value": {"tensor": {"dtype": "DT_INT32", "tensorShape": {"dim": [{"size": "1"}]}}}, "dtype": {"type": "DT_INT32"}}}, {"name": "scout-model-8.6.0/BoxPredictor_0/strided_slice/stack_2", "op": "Const", "attr": {"dtype": {"type": "DT_INT32"}, "value": {"tensor": {"dtype": "DT_INT32", "tensorShape": {"dim": [{"size": "1"}]}}}}}, {"name": "scout-model-8.6.0/BoxPredictor_0/stack/1", "op": "Const", "attr": {"value": {"tensor": {"dtype": "DT_INT32", "tensorShape": {}}}, "dtype": {"type": "DT_INT32"}}}, {"name": "scout-model-8.6.0/BoxPredictor_0/stack/2", "op": "Const", "attr": {"value": {"tensor": {"dtype": "DT_INT32", "tensorShape": {}}}, "dtype": {"type": "DT_INT32"}}}, {"name": "scout-model-8.6.0/BoxPredictor_0/stack/3", "op": "Const", "attr": {"dtype": {"type": "DT_INT32"}, "value": {"tensor": {"dtype": "DT_INT32", "tensorShape": {}}}}}, {"name": "scout-model-8.6.0/BoxPredictor_5/BoxEncodingPredictor/weights", "op": "Const", "attr": {"value": {"tensor": {"dtype": "DT_FLOAT", "tensorShape": {"dim": [{"size": "1"}, {"size": "1"}, {"size": "128"}, {"size": "24"}]}}}, "dtype": {"type": "DT_FLOAT"}}}, {"name": "scout-model-8.6.0/BoxPredictor_5/BoxEncodingPredictor/biases", "op": "Const", "attr": {"value": {"tensor": {"dtype": "DT_FLOAT", "tensorShape": {"dim": [{"size": "24"}]}}}, "dtype": {"type": "DT_FLOAT"}}}, {"name": "scout-model-8.6.0/Preprocessor/mul/x", "op": "Const", "attr": {"value": {"tensor": {"dtype": "DT_FLOAT", "tensorShape": {}}}, "dtype": {"type": "DT_FLOAT"}}}, {"name": "scout-model-8.6.0/Preprocessor/map/TensorArrayStack/range/start", "op": "Const", "attr": {"value": {"tensor": {"dtype": "DT_INT32", "tensorShape": {}}}, "dtype": {"type": "DT_INT32"}}}, {"name": "scout-model-8.6.0/Preprocessor/map/TensorArrayStack/range/delta", "op": "Const", "attr": {"value": {"tensor": {"dtype": "DT_INT32", "tensorShape": {}}}, "dtype": {"type": "DT_INT32"}}}, {"name": "scout-model-8.6.0/Preprocessor/map/TensorArrayUnstack/range/start", "op": "Const", "attr": {"value": {"tensor": {"dtype": "DT_INT32", "tensorShape": {}}}, "dtype": {"type": "DT_INT32"}}}, {"name": "scout-model-8.6.0/Preprocessor/map/TensorArrayUnstack/strided_slice/stack", "op": "Const", "attr": {"value": {"tensor": {"dtype": "DT_INT32", "tensorShape": {"dim": [{"size": "1"}]}}}, "dtype": {"type": "DT_INT32"}}}, {"name": "scout-model-8.6.0/Preprocessor/map/TensorArrayUnstack/strided_slice/stack_1", "op": "Const", "attr": {"value": {"tensor": {"dtype": "DT_INT32", "tensorShape": {"dim": [{"size": "1"}]}}}, "dtype": {"type": "DT_INT32"}}}, {"name": "scout-model-8.6.0/Preprocessor/map/TensorArrayUnstack/strided_slice/stack_2", "op": "Const", "attr": {"value": {"tensor": {"dtype": "DT_INT32", "tensorShape": {"dim": [{"size": "1"}]}}}, "dtype": {"type": "DT_INT32"}}}, {"name": "scout-model-8.6.0/Preprocessor/map/TensorArrayUnstack/range/delta", "op": "Const", "attr": {"value": {"tensor": {"dtype": "DT_INT32", "tensorShape": {}}}, "dtype": {"type": "DT_INT32"}}}, {"name": "scout-model-8.6.0/Preprocessor/map/Const", "op": "Const", "attr": {"value": {"tensor": {"dtype": "DT_INT32", "tensorShape": {}}}, "dtype": {"type": "DT_INT32"}}}, {"name": "scout-model-8.6.0/Preprocessor/map/strided_slice/stack", "op": "Const", "attr": {"value": {"tensor": {"dtype": "DT_INT32", "tensorShape": {"dim": [{"size": "1"}]}}}, "dtype": {"type": "DT_INT32"}}}, {"name": "scout-model-8.6.0/Preprocessor/map/strided_slice/stack_1", "op": "Const", "attr": {"value": {"tensor": {"dtype": "DT_INT32", "tensorShape": {"dim": [{"size": "1"}]}}}, "dtype": {"type": "DT_INT32"}}}, {"name": "scout-model-8.6.0/Preprocessor/map/strided_slice/stack_2", "op": "Const", "attr": {"value": {"tensor": {"dtype": "DT_INT32", "tensorShape": {"dim": [{"size": "1"}]}}}, "dtype": {"type": "DT_INT32"}}}, {"name": "scout-model-8.6.0/Preprocessor/sub/y", "op": "Const", "attr": {"value": {"tensor": {"dtype": "DT_FLOAT", "tensorShape": {}}}, "dtype": {"type": "DT_FLOAT"}}}, {"name": "scout-model-8.6.0/BoxPredictor_5/strided_slice/stack", "op": "Const", "attr": {"value": {"tensor": {"dtype": "DT_INT32", "tensorShape": {"dim": [{"size": "1"}]}}}, "dtype": {"type": "DT_INT32"}}}, {"name": "scout-model-8.6.0/BoxPredictor_5/strided_slice/stack_1", "op": "Const", "attr": {"value": {"tensor": {"dtype": "DT_INT32", "tensorShape": {"dim": [{"size": "1"}]}}}, "dtype": {"type": "DT_INT32"}}}, {"name": "scout-model-8.6.0/BoxPredictor_5/strided_slice/stack_2", "op": "Const", "attr": {"dtype": {"type": "DT_INT32"}, "value": {"tensor": {"dtype": "DT_INT32", "tensorShape": {"dim": [{"size": "1"}]}}}}}, {"name": "scout-model-8.6.0/BoxPredictor_5/stack/1", "op": "Const", "attr": {"value": {"tensor": {"dtype": "DT_INT32", "tensorShape": {}}}, "dtype": {"type": "DT_INT32"}}}, {"name": "scout-model-8.6.0/BoxPredictor_5/stack/2", "op": "Const", "attr": {"value": {"tensor": {"dtype": "DT_INT32", "tensorShape": {}}}, "dtype": {"type": "DT_INT32"}}}, {"name": "scout-model-8.6.0/BoxPredictor_5/stack/3", "op": "Const", "attr": {"value": {"tensor": {"dtype": "DT_INT32", "tensorShape": {}}}, "dtype": {"type": "DT_INT32"}}}, {"name": "scout-model-8.6.0/Postprocessor/Slice/begin", "op": "Const", "attr": {"value": {"tensor": {"dtype": "DT_INT32", "tensorShape": {"dim": [{"size": "3"}]}}}, "dtype": {"type": "DT_INT32"}}}, {"name": "scout-model-8.6.0/Postprocessor/Slice/size", "op": "Const", "attr": {"value": {"tensor": {"dtype": "DT_INT32", "tensorShape": {"dim": [{"size": "3"}]}}}, "dtype": {"type": "DT_INT32"}}}, {"name": "scout-model-8.6.0/image_tensor", "op": "Placeholder", "attr": {"shape": {"shape": {"dim": [{"size": "-1"}, {"size": "-1"}, {"size": "-1"}, {"size": "3"}]}}, "dtype": {"type": "DT_UINT8"}}}, {"name": "scout-model-8.6.0/FeatureExtractor/MobilenetV1/MobilenetV1/Conv2d_0/Conv2D_weights", "op": "Const", "attr": {"value": {"tensor": {"dtype": "DT_FLOAT", "tensorShape": {"dim": [{"size": "3"}, {"size": "3"}, {"size": "3"}, {"size": "32"}]}}}, "dtype": {"type": "DT_FLOAT"}}}, {"name": "scout-model-8.6.0/FeatureExtractor/MobilenetV1/MobilenetV1/Conv2d_0/Conv2D_bn_offset", "op": "Const", "attr": {"value": {"tensor": {"dtype": "DT_FLOAT", "tensorShape": {"dim": [{"size": "32"}]}}}, "dtype": {"type": "DT_FLOAT"}}}, {"name": "scout-model-8.6.0/FeatureExtractor/MobilenetV1/MobilenetV1/Conv2d_1_depthwise/depthwise_weights", "op": "Const", "attr": {"dtype": {"type": "DT_FLOAT"}, "value": {"tensor": {"dtype": "DT_FLOAT", "tensorShape": {"dim": [{"size": "3"}, {"size": "3"}, {"size": "32"}, {"size": "1"}]}}}}}, {"name": "scout-model-8.6.0/FeatureExtractor/MobilenetV1/MobilenetV1/Conv2d_1_depthwise/depthwise_bn_offset", "op": "Const", "attr": {"value": {"tensor": {"dtype": "DT_FLOAT", "tensorShape": {"dim": [{"size": "32"}]}}}, "dtype": {"type": "DT_FLOAT"}}}, {"name": "scout-model-8.6.0/FeatureExtractor/MobilenetV1/MobilenetV1/Conv2d_1_pointwise/Conv2D_weights", "op": "Const", "attr": {"value": {"tensor": {"dtype": "DT_FLOAT", "tensorShape": {"dim": [{"size": "1"}, {"size": "1"}, {"size": "32"}, {"size": "64"}]}}}, "dtype": {"type": "DT_FLOAT"}}}, {"name": "scout-model-8.6.0/FeatureExtractor/MobilenetV1/MobilenetV1/Conv2d_1_pointwise/Conv2D_bn_offset", "op": "Const", "attr": {"value": {"tensor": {"dtype": "DT_FLOAT", "tensorShape": {"dim": [{"size": "64"}]}}}, "dtype": {"type": "DT_FLOAT"}}}, {"name": "scout-model-8.6.0/FeatureExtractor/MobilenetV1/MobilenetV1/Conv2d_2_depthwise/depthwise_weights", "op": "Const", "attr": {"value": {"tensor": {"dtype": "DT_FLOAT", "tensorShape": {"dim": [{"size": "3"}, {"size": "3"}, {"size": "64"}, {"size": "1"}]}}}, "dtype": {"type": "DT_FLOAT"}}}, {"name": "scout-model-8.6.0/FeatureExtractor/MobilenetV1/MobilenetV1/Conv2d_2_depthwise/depthwise_bn_offset", "op": "Const", "attr": {"value": {"tensor": {"dtype": "DT_FLOAT", "tensorShape": {"dim": [{"size": "64"}]}}}, "dtype": {"type": "DT_FLOAT"}}}, {"name": "scout-model-8.6.0/FeatureExtractor/MobilenetV1/MobilenetV1/Conv2d_2_pointwise/Conv2D_weights", "op": "Const", "attr": {"value": {"tensor": {"dtype": "DT_FLOAT", "tensorShape": {"dim": [{"size": "1"}, {"size": "1"}, {"size": "64"}, {"size": "128"}]}}}, "dtype": {"type": "DT_FLOAT"}}}, {"name": "scout-model-8.6.0/FeatureExtractor/MobilenetV1/MobilenetV1/Conv2d_2_pointwise/Conv2D_bn_offset", "op": "Const", "attr": {"dtype": {"type": "DT_FLOAT"}, "value": {"tensor": {"dtype": "DT_FLOAT", "tensorShape": {"dim": [{"size": "128"}]}}}}}, {"name": "scout-model-8.6.0/FeatureExtractor/MobilenetV1/MobilenetV1/Conv2d_3_depthwise/depthwise_weights", "op": "Const", "attr": {"value": {"tensor": {"dtype": "DT_FLOAT", "tensorShape": {"dim": [{"size": "3"}, {"size": "3"}, {"size": "128"}, {"size": "1"}]}}}, "dtype": {"type": "DT_FLOAT"}}}, {"name": "scout-model-8.6.0/FeatureExtractor/MobilenetV1/MobilenetV1/Conv2d_3_depthwise/depthwise_bn_offset", "op": "Const", "attr": {"value": {"tensor": {"dtype": "DT_FLOAT", "tensorShape": {"dim": [{"size": "128"}]}}}, "dtype": {"type": "DT_FLOAT"}}}, {"name": "scout-model-8.6.0/FeatureExtractor/MobilenetV1/MobilenetV1/Conv2d_3_pointwise/Conv2D_weights", "op": "Const", "attr": {"dtype": {"type": "DT_FLOAT"}, "value": {"tensor": {"dtype": "DT_FLOAT", "tensorShape": {"dim": [{"size": "1"}, {"size": "1"}, {"size": "128"}, {"size": "128"}]}}}}}, {"name": "scout-model-8.6.0/FeatureExtractor/MobilenetV1/MobilenetV1/Conv2d_3_pointwise/Conv2D_bn_offset", "op": "Const", "attr": {"value": {"tensor": {"dtype": "DT_FLOAT", "tensorShape": {"dim": [{"size": "128"}]}}}, "dtype": {"type": "DT_FLOAT"}}}, {"name": "scout-model-8.6.0/FeatureExtractor/MobilenetV1/MobilenetV1/Conv2d_4_depthwise/depthwise_weights", "op": "Const", "attr": {"value": {"tensor": {"dtype": "DT_FLOAT", "tensorShape": {"dim": [{"size": "3"}, {"size": "3"}, {"size": "128"}, {"size": "1"}]}}}, "dtype": {"type": "DT_FLOAT"}}}, {"name": "scout-model-8.6.0/FeatureExtractor/MobilenetV1/MobilenetV1/Conv2d_4_depthwise/depthwise_bn_offset", "op": "Const", "attr": {"value": {"tensor": {"dtype": "DT_FLOAT", "tensorShape": {"dim": [{"size": "128"}]}}}, "dtype": {"type": "DT_FLOAT"}}}, {"name": "scout-model-8.6.0/FeatureExtractor/MobilenetV1/MobilenetV1/Conv2d_4_pointwise/Conv2D_weights", "op": "Const", "attr": {"value": {"tensor": {"dtype": "DT_FLOAT", "tensorShape": {"dim": [{"size": "1"}, {"size": "1"}, {"size": "128"}, {"size": "256"}]}}}, "dtype": {"type": "DT_FLOAT"}}}, {"name": "scout-model-8.6.0/FeatureExtractor/MobilenetV1/MobilenetV1/Conv2d_4_pointwise/Conv2D_bn_offset", "op": "Const", "attr": {"dtype": {"type": "DT_FLOAT"}, "value": {"tensor": {"dtype": "DT_FLOAT", "tensorShape": {"dim": [{"size": "256"}]}}}}}, {"name": "scout-model-8.6.0/FeatureExtractor/MobilenetV1/MobilenetV1/Conv2d_5_depthwise/depthwise_weights", "op": "Const", "attr": {"value": {"tensor": {"dtype": "DT_FLOAT", "tensorShape": {"dim": [{"size": "3"}, {"size": "3"}, {"size": "256"}, {"size": "1"}]}}}, "dtype": {"type": "DT_FLOAT"}}}, {"name": "scout-model-8.6.0/FeatureExtractor/MobilenetV1/MobilenetV1/Conv2d_5_depthwise/depthwise_bn_offset", "op": "Const", "attr": {"value": {"tensor": {"dtype": "DT_FLOAT", "tensorShape": {"dim": [{"size": "256"}]}}}, "dtype": {"type": "DT_FLOAT"}}}, {"name": "scout-model-8.6.0/FeatureExtractor/MobilenetV1/MobilenetV1/Conv2d_5_pointwise/Conv2D_weights", "op": "Const", "attr": {"value": {"tensor": {"dtype": "DT_FLOAT", "tensorShape": {"dim": [{"size": "1"}, {"size": "1"}, {"size": "256"}, {"size": "256"}]}}}, "dtype": {"type": "DT_FLOAT"}}}, {"name": "scout-model-8.6.0/FeatureExtractor/MobilenetV1/MobilenetV1/Conv2d_5_pointwise/Conv2D_bn_offset", "op": "Const", "attr": {"value": {"tensor": {"dtype": "DT_FLOAT", "tensorShape": {"dim": [{"size": "256"}]}}}, "dtype": {"type": "DT_FLOAT"}}}, {"name": "scout-model-8.6.0/FeatureExtractor/MobilenetV1/MobilenetV1/Conv2d_6_depthwise/depthwise_weights", "op": "Const", "attr": {"dtype": {"type": "DT_FLOAT"}, "value": {"tensor": {"dtype": "DT_FLOAT", "tensorShape": {"dim": [{"size": "3"}, {"size": "3"}, {"size": "256"}, {"size": "1"}]}}}}}, {"name": "scout-model-8.6.0/FeatureExtractor/MobilenetV1/MobilenetV1/Conv2d_6_depthwise/depthwise_bn_offset", "op": "Const", "attr": {"value": {"tensor": {"dtype": "DT_FLOAT", "tensorShape": {"dim": [{"size": "256"}]}}}, "dtype": {"type": "DT_FLOAT"}}}, {"name": "scout-model-8.6.0/FeatureExtractor/MobilenetV1/MobilenetV1/Conv2d_6_pointwise/Conv2D_weights", "op": "Const", "attr": {"value": {"tensor": {"dtype": "DT_FLOAT", "tensorShape": {"dim": [{"size": "1"}, {"size": "1"}, {"size": "256"}, {"size": "512"}]}}}, "dtype": {"type": "DT_FLOAT"}}}, {"name": "scout-model-8.6.0/FeatureExtractor/MobilenetV1/MobilenetV1/Conv2d_6_pointwise/Conv2D_bn_offset", "op": "Const", "attr": {"value": {"tensor": {"dtype": "DT_FLOAT", "tensorShape": {"dim": [{"size": "512"}]}}}, "dtype": {"type": "DT_FLOAT"}}}, {"name": "scout-model-8.6.0/FeatureExtractor/MobilenetV1/MobilenetV1/Conv2d_7_depthwise/depthwise_weights", "op": "Const", "attr": {"value": {"tensor": {"dtype": "DT_FLOAT", "tensorShape": {"dim": [{"size": "3"}, {"size": "3"}, {"size": "512"}, {"size": "1"}]}}}, "dtype": {"type": "DT_FLOAT"}}}, {"name": "scout-model-8.6.0/FeatureExtractor/MobilenetV1/MobilenetV1/Conv2d_7_depthwise/depthwise_bn_offset", "op": "Const", "attr": {"dtype": {"type": "DT_FLOAT"}, "value": {"tensor": {"dtype": "DT_FLOAT", "tensorShape": {"dim": [{"size": "512"}]}}}}}, {"name": "scout-model-8.6.0/FeatureExtractor/MobilenetV1/MobilenetV1/Conv2d_7_pointwise/Conv2D_weights", "op": "Const", "attr": {"value": {"tensor": {"dtype": "DT_FLOAT", "tensorShape": {"dim": [{"size": "1"}, {"size": "1"}, {"size": "512"}, {"size": "512"}]}}}, "dtype": {"type": "DT_FLOAT"}}}, {"name": "scout-model-8.6.0/FeatureExtractor/MobilenetV1/MobilenetV1/Conv2d_7_pointwise/Conv2D_bn_offset", "op": "Const", "attr": {"value": {"tensor": {"dtype": "DT_FLOAT", "tensorShape": {"dim": [{"size": "512"}]}}}, "dtype": {"type": "DT_FLOAT"}}}, {"name": "scout-model-8.6.0/FeatureExtractor/MobilenetV1/MobilenetV1/Conv2d_8_depthwise/depthwise_weights", "op": "Const", "attr": {"value": {"tensor": {"dtype": "DT_FLOAT", "tensorShape": {"dim": [{"size": "3"}, {"size": "3"}, {"size": "512"}, {"size": "1"}]}}}, "dtype": {"type": "DT_FLOAT"}}}, {"name": "scout-model-8.6.0/FeatureExtractor/MobilenetV1/MobilenetV1/Conv2d_8_depthwise/depthwise_bn_offset", "op": "Const", "attr": {"dtype": {"type": "DT_FLOAT"}, "value": {"tensor": {"dtype": "DT_FLOAT", "tensorShape": {"dim": [{"size": "512"}]}}}}}, {"name": "scout-model-8.6.0/FeatureExtractor/MobilenetV1/MobilenetV1/Conv2d_8_pointwise/Conv2D_weights", "op": "Const", "attr": {"value": {"tensor": {"dtype": "DT_FLOAT", "tensorShape": {"dim": [{"size": "1"}, {"size": "1"}, {"size": "512"}, {"size": "512"}]}}}, "dtype": {"type": "DT_FLOAT"}}}, {"name": "scout-model-8.6.0/FeatureExtractor/MobilenetV1/MobilenetV1/Conv2d_8_pointwise/Conv2D_bn_offset", "op": "Const", "attr": {"value": {"tensor": {"dtype": "DT_FLOAT", "tensorShape": {"dim": [{"size": "512"}]}}}, "dtype": {"type": "DT_FLOAT"}}}, {"name": "scout-model-8.6.0/FeatureExtractor/MobilenetV1/MobilenetV1/Conv2d_9_depthwise/depthwise_weights", "op": "Const", "attr": {"value": {"tensor": {"dtype": "DT_FLOAT", "tensorShape": {"dim": [{"size": "3"}, {"size": "3"}, {"size": "512"}, {"size": "1"}]}}}, "dtype": {"type": "DT_FLOAT"}}}, {"name": "scout-model-8.6.0/FeatureExtractor/MobilenetV1/MobilenetV1/Conv2d_9_depthwise/depthwise_bn_offset", "op": "Const", "attr": {"dtype": {"type": "DT_FLOAT"}, "value": {"tensor": {"dtype": "DT_FLOAT", "tensorShape": {"dim": [{"size": "512"}]}}}}}, {"name": "scout-model-8.6.0/FeatureExtractor/MobilenetV1/MobilenetV1/Conv2d_9_pointwise/Conv2D_weights", "op": "Const", "attr": {"value": {"tensor": {"dtype": "DT_FLOAT", "tensorShape": {"dim": [{"size": "1"}, {"size": "1"}, {"size": "512"}, {"size": "512"}]}}}, "dtype": {"type": "DT_FLOAT"}}}, {"name": "scout-model-8.6.0/FeatureExtractor/MobilenetV1/MobilenetV1/Conv2d_9_pointwise/Conv2D_bn_offset", "op": "Const", "attr": {"value": {"tensor": {"dtype": "DT_FLOAT", "tensorShape": {"dim": [{"size": "512"}]}}}, "dtype": {"type": "DT_FLOAT"}}}, {"name": "scout-model-8.6.0/FeatureExtractor/MobilenetV1/MobilenetV1/Conv2d_10_depthwise/depthwise_weights", "op": "Const", "attr": {"value": {"tensor": {"dtype": "DT_FLOAT", "tensorShape": {"dim": [{"size": "3"}, {"size": "3"}, {"size": "512"}, {"size": "1"}]}}}, "dtype": {"type": "DT_FLOAT"}}}, {"name": "scout-model-8.6.0/FeatureExtractor/MobilenetV1/MobilenetV1/Conv2d_10_depthwise/depthwise_bn_offset", "op": "Const", "attr": {"dtype": {"type": "DT_FLOAT"}, "value": {"tensor": {"dtype": "DT_FLOAT", "tensorShape": {"dim": [{"size": "512"}]}}}}}, {"name": "scout-model-8.6.0/FeatureExtractor/MobilenetV1/MobilenetV1/Conv2d_10_pointwise/Conv2D_weights", "op": "Const", "attr": {"value": {"tensor": {"dtype": "DT_FLOAT", "tensorShape": {"dim": [{"size": "1"}, {"size": "1"}, {"size": "512"}, {"size": "512"}]}}}, "dtype": {"type": "DT_FLOAT"}}}, {"name": "scout-model-8.6.0/FeatureExtractor/MobilenetV1/MobilenetV1/Conv2d_10_pointwise/Conv2D_bn_offset", "op": "Const", "attr": {"value": {"tensor": {"dtype": "DT_FLOAT", "tensorShape": {"dim": [{"size": "512"}]}}}, "dtype": {"type": "DT_FLOAT"}}}, {"name": "scout-model-8.6.0/FeatureExtractor/MobilenetV1/MobilenetV1/Conv2d_11_depthwise/depthwise_weights", "op": "Const", "attr": {"dtype": {"type": "DT_FLOAT"}, "value": {"tensor": {"dtype": "DT_FLOAT", "tensorShape": {"dim": [{"size": "3"}, {"size": "3"}, {"size": "512"}, {"size": "1"}]}}}}}, {"name": "scout-model-8.6.0/FeatureExtractor/MobilenetV1/MobilenetV1/Conv2d_11_depthwise/depthwise_bn_offset", "op": "Const", "attr": {"value": {"tensor": {"dtype": "DT_FLOAT", "tensorShape": {"dim": [{"size": "512"}]}}}, "dtype": {"type": "DT_FLOAT"}}}, {"name": "scout-model-8.6.0/FeatureExtractor/MobilenetV1/MobilenetV1/Conv2d_11_pointwise/Conv2D_weights", "op": "Const", "attr": {"value": {"tensor": {"dtype": "DT_FLOAT", "tensorShape": {"dim": [{"size": "1"}, {"size": "1"}, {"size": "512"}, {"size": "512"}]}}}, "dtype": {"type": "DT_FLOAT"}}}, {"name": "scout-model-8.6.0/FeatureExtractor/MobilenetV1/MobilenetV1/Conv2d_11_pointwise/Conv2D_bn_offset", "op": "Const", "attr": {"value": {"tensor": {"dtype": "DT_FLOAT", "tensorShape": {"dim": [{"size": "512"}]}}}, "dtype": {"type": "DT_FLOAT"}}}, {"name": "scout-model-8.6.0/FeatureExtractor/MobilenetV1/MobilenetV1/Conv2d_12_depthwise/depthwise_weights", "op": "Const", "attr": {"value": {"tensor": {"dtype": "DT_FLOAT", "tensorShape": {"dim": [{"size": "3"}, {"size": "3"}, {"size": "512"}, {"size": "1"}]}}}, "dtype": {"type": "DT_FLOAT"}}}, {"name": "scout-model-8.6.0/FeatureExtractor/MobilenetV1/MobilenetV1/Conv2d_12_depthwise/depthwise_bn_offset", "op": "Const", "attr": {"value": {"tensor": {"dtype": "DT_FLOAT", "tensorShape": {"dim": [{"size": "512"}]}}}, "dtype": {"type": "DT_FLOAT"}}}, {"name": "scout-model-8.6.0/FeatureExtractor/MobilenetV1/MobilenetV1/Conv2d_12_pointwise/Conv2D_weights", "op": "Const", "attr": {"value": {"tensor": {"dtype": "DT_FLOAT", "tensorShape": {"dim": [{"size": "1"}, {"size": "1"}, {"size": "512"}, {"size": "1024"}]}}}, "dtype": {"type": "DT_FLOAT"}}}, {"name": "scout-model-8.6.0/FeatureExtractor/MobilenetV1/MobilenetV1/Conv2d_12_pointwise/Conv2D_bn_offset", "op": "Const", "attr": {"value": {"tensor": {"dtype": "DT_FLOAT", "tensorShape": {"dim": [{"size": "1024"}]}}}, "dtype": {"type": "DT_FLOAT"}}}, {"name": "scout-model-8.6.0/FeatureExtractor/MobilenetV1/MobilenetV1/Conv2d_13_depthwise/depthwise_weights", "op": "Const", "attr": {"value": {"tensor": {"dtype": "DT_FLOAT", "tensorShape": {"dim": [{"size": "3"}, {"size": "3"}, {"size": "1024"}, {"size": "1"}]}}}, "dtype": {"type": "DT_FLOAT"}}}, {"name": "scout-model-8.6.0/FeatureExtractor/MobilenetV1/MobilenetV1/Conv2d_13_depthwise/depthwise_bn_offset", "op": "Const", "attr": {"value": {"tensor": {"dtype": "DT_FLOAT", "tensorShape": {"dim": [{"size": "1024"}]}}}, "dtype": {"type": "DT_FLOAT"}}}, {"name": "scout-model-8.6.0/FeatureExtractor/MobilenetV1/MobilenetV1/Conv2d_13_pointwise/Conv2D_weights", "op": "Const", "attr": {"value": {"tensor": {"dtype": "DT_FLOAT", "tensorShape": {"dim": [{"size": "1"}, {"size": "1"}, {"size": "1024"}, {"size": "1024"}]}}}, "dtype": {"type": "DT_FLOAT"}}}, {"name": "scout-model-8.6.0/FeatureExtractor/MobilenetV1/MobilenetV1/Conv2d_13_pointwise/Conv2D_bn_offset", "op": "Const", "attr": {"value": {"tensor": {"dtype": "DT_FLOAT", "tensorShape": {"dim": [{"size": "1024"}]}}}, "dtype": {"type": "DT_FLOAT"}}}, {"name": "scout-model-8.6.0/FeatureExtractor/MobilenetV1/Conv2d_13_pointwise_1_Conv2d_2_1x1_256/Conv2D_weights", "op": "Const", "attr": {"dtype": {"type": "DT_FLOAT"}, "value": {"tensor": {"dtype": "DT_FLOAT", "tensorShape": {"dim": [{"size": "1"}, {"size": "1"}, {"size": "1024"}, {"size": "256"}]}}}}}, {"name": "scout-model-8.6.0/FeatureExtractor/MobilenetV1/Conv2d_13_pointwise_1_Conv2d_2_1x1_256/Conv2D_bn_offset", "op": "Const", "attr": {"dtype": {"type": "DT_FLOAT"}, "value": {"tensor": {"dtype": "DT_FLOAT", "tensorShape": {"dim": [{"size": "256"}]}}}}}, {"name": "scout-model-8.6.0/FeatureExtractor/MobilenetV1/Conv2d_13_pointwise_2_Conv2d_2_3x3_s2_512/Conv2D_weights", "op": "Const", "attr": {"value": {"tensor": {"dtype": "DT_FLOAT", "tensorShape": {"dim": [{"size": "3"}, {"size": "3"}, {"size": "256"}, {"size": "512"}]}}}, "dtype": {"type": "DT_FLOAT"}}}, {"name": "scout-model-8.6.0/FeatureExtractor/MobilenetV1/Conv2d_13_pointwise_2_Conv2d_2_3x3_s2_512/Conv2D_bn_offset", "op": "Const", "attr": {"value": {"tensor": {"dtype": "DT_FLOAT", "tensorShape": {"dim": [{"size": "512"}]}}}, "dtype": {"type": "DT_FLOAT"}}}, {"name": "scout-model-8.6.0/FeatureExtractor/MobilenetV1/Conv2d_13_pointwise_1_Conv2d_3_1x1_128/Conv2D_weights", "op": "Const", "attr": {"value": {"tensor": {"dtype": "DT_FLOAT", "tensorShape": {"dim": [{"size": "1"}, {"size": "1"}, {"size": "512"}, {"size": "128"}]}}}, "dtype": {"type": "DT_FLOAT"}}}, {"name": "scout-model-8.6.0/FeatureExtractor/MobilenetV1/Conv2d_13_pointwise_1_Conv2d_3_1x1_128/Conv2D_bn_offset", "op": "Const", "attr": {"value": {"tensor": {"dtype": "DT_FLOAT", "tensorShape": {"dim": [{"size": "128"}]}}}, "dtype": {"type": "DT_FLOAT"}}}, {"name": "scout-model-8.6.0/FeatureExtractor/MobilenetV1/Conv2d_13_pointwise_2_Conv2d_3_3x3_s2_256/Conv2D_weights", "op": "Const", "attr": {"value": {"tensor": {"dtype": "DT_FLOAT", "tensorShape": {"dim": [{"size": "3"}, {"size": "3"}, {"size": "128"}, {"size": "256"}]}}}, "dtype": {"type": "DT_FLOAT"}}}, {"name": "scout-model-8.6.0/FeatureExtractor/MobilenetV1/Conv2d_13_pointwise_2_Conv2d_3_3x3_s2_256/Conv2D_bn_offset", "op": "Const", "attr": {"value": {"tensor": {"dtype": "DT_FLOAT", "tensorShape": {"dim": [{"size": "256"}]}}}, "dtype": {"type": "DT_FLOAT"}}}, {"name": "scout-model-8.6.0/FeatureExtractor/MobilenetV1/Conv2d_13_pointwise_1_Conv2d_4_1x1_128/Conv2D_weights", "op": "Const", "attr": {"value": {"tensor": {"dtype": "DT_FLOAT", "tensorShape": {"dim": [{"size": "1"}, {"size": "1"}, {"size": "256"}, {"size": "128"}]}}}, "dtype": {"type": "DT_FLOAT"}}}, {"name": "scout-model-8.6.0/FeatureExtractor/MobilenetV1/Conv2d_13_pointwise_1_Conv2d_4_1x1_128/Conv2D_bn_offset", "op": "Const", "attr": {"dtype": {"type": "DT_FLOAT"}, "value": {"tensor": {"dtype": "DT_FLOAT", "tensorShape": {"dim": [{"size": "128"}]}}}}}, {"name": "scout-model-8.6.0/FeatureExtractor/MobilenetV1/Conv2d_13_pointwise_2_Conv2d_4_3x3_s2_256/Conv2D_weights", "op": "Const", "attr": {"value": {"tensor": {"dtype": "DT_FLOAT", "tensorShape": {"dim": [{"size": "3"}, {"size": "3"}, {"size": "128"}, {"size": "256"}]}}}, "dtype": {"type": "DT_FLOAT"}}}, {"name": "scout-model-8.6.0/FeatureExtractor/MobilenetV1/Conv2d_13_pointwise_2_Conv2d_4_3x3_s2_256/Conv2D_bn_offset", "op": "Const", "attr": {"value": {"tensor": {"dtype": "DT_FLOAT", "tensorShape": {"dim": [{"size": "256"}]}}}, "dtype": {"type": "DT_FLOAT"}}}, {"name": "scout-model-8.6.0/FeatureExtractor/MobilenetV1/Conv2d_13_pointwise_1_Conv2d_5_1x1_64/Conv2D_weights", "op": "Const", "attr": {"value": {"tensor": {"dtype": "DT_FLOAT", "tensorShape": {"dim": [{"size": "1"}, {"size": "1"}, {"size": "256"}, {"size": "64"}]}}}, "dtype": {"type": "DT_FLOAT"}}}, {"name": "scout-model-8.6.0/FeatureExtractor/MobilenetV1/Conv2d_13_pointwise_1_Conv2d_5_1x1_64/Conv2D_bn_offset", "op": "Const", "attr": {"value": {"tensor": {"dtype": "DT_FLOAT", "tensorShape": {"dim": [{"size": "64"}]}}}, "dtype": {"type": "DT_FLOAT"}}}, {"name": "scout-model-8.6.0/FeatureExtractor/MobilenetV1/Conv2d_13_pointwise_2_Conv2d_5_3x3_s2_128/Conv2D_weights", "op": "Const", "attr": {"value": {"tensor": {"dtype": "DT_FLOAT", "tensorShape": {"dim": [{"size": "3"}, {"size": "3"}, {"size": "64"}, {"size": "128"}]}}}, "dtype": {"type": "DT_FLOAT"}}}, {"name": "scout-model-8.6.0/FeatureExtractor/MobilenetV1/Conv2d_13_pointwise_2_Conv2d_5_3x3_s2_128/Conv2D_bn_offset", "op": "Const", "attr": {"value": {"tensor": {"dtype": "DT_FLOAT", "tensorShape": {"dim": [{"size": "128"}]}}}, "dtype": {"type": "DT_FLOAT"}}}, {"name": "scout-model-8.6.0/Preprocessor/map/while/Enter", "op": "Enter", "input": ["scout-model-8.6.0/Preprocessor/map/Const"], "attr": {"T": {"type": "DT_INT32"}, "is_constant": {"b": false}, "parallel_iterations": {"i": "10"}, "frame_name": {"s": "UHJlcHJvY2Vzc29yL21hcC93aGlsZS93aGlsZV9jb250ZXh0"}}}, {"name": "scout-model-8.6.0/ToFloat", "op": "Cast", "input": ["scout-model-8.6.0/image_tensor"], "attr": {"Truncate": {"b": false}, "DstT": {"type": "DT_FLOAT"}, "SrcT": {"type": "DT_UINT8"}}}, {"name": "scout-model-8.6.0/Preprocessor/map/while/Merge", "op": "Merge", "input": ["scout-model-8.6.0/Preprocessor/map/while/Enter", "scout-model-8.6.0/Preprocessor/map/while/NextIteration"], "attr": {"T": {"type": "DT_INT32"}, "N": {"i": "2"}}}, {"name": "scout-model-8.6.0/Preprocessor/map/TensorArrayUnstack/Shape", "op": "Shape", "input": ["scout-model-8.6.0/ToFloat"], "attr": {"T": {"type": "DT_FLOAT"}, "out_type": {"type": "DT_INT32"}}}, {"name": "scout-model-8.6.0/Preprocessor/map/Shape", "op": "Shape", "input": ["scout-model-8.6.0/ToFloat"], "attr": {"T": {"type": "DT_FLOAT"}, "out_type": {"type": "DT_INT32"}}}, {"name": "scout-model-8.6.0/Preprocessor/map/TensorArrayUnstack/strided_slice", "op": "StridedSlice", "input": ["scout-model-8.6.0/Preprocessor/map/TensorArrayUnstack/Shape", "scout-model-8.6.0/Preprocessor/map/TensorArrayUnstack/strided_slice/stack", "scout-model-8.6.0/Preprocessor/map/TensorArrayUnstack/strided_slice/stack_1", "scout-model-8.6.0/Preprocessor/map/TensorArrayUnstack/strided_slice/stack_2"], "attr": {"Index": {"type": "DT_INT32"}, "T": {"type": "DT_INT32"}, "shrink_axis_mask": {"i": "1"}, "ellipsis_mask": {"i": "0"}, "begin_mask": {"i": "0"}, "new_axis_mask": {"i": "0"}, "end_mask": {"i": "0"}}}, {"name": "scout-model-8.6.0/Preprocessor/map/strided_slice", "op": "StridedSlice", "input": ["scout-model-8.6.0/Preprocessor/map/Shape", "scout-model-8.6.0/Preprocessor/map/strided_slice/stack", "scout-model-8.6.0/Preprocessor/map/strided_slice/stack_1", "scout-model-8.6.0/Preprocessor/map/strided_slice/stack_2"], "attr": {"shrink_axis_mask": {"i": "1"}, "begin_mask": {"i": "0"}, "ellipsis_mask": {"i": "0"}, "new_axis_mask": {"i": "0"}, "end_mask": {"i": "0"}, "Index": {"type": "DT_INT32"}, "T": {"type": "DT_INT32"}}}, {"name": "scout-model-8.6.0/Preprocessor/map/TensorArrayUnstack/range", "op": "Range", "input": ["scout-model-8.6.0/Preprocessor/map/TensorArrayUnstack/range/start", "scout-model-8.6.0/Preprocessor/map/TensorArrayUnstack/strided_slice", "scout-model-8.6.0/Preprocessor/map/TensorArrayUnstack/range/delta"], "attr": {"Tidx": {"type": "DT_INT32"}}}, {"name": "scout-model-8.6.0/Preprocessor/map/TensorArray_1", "op": "TensorArrayV3", "input": ["scout-model-8.6.0/Preprocessor/map/strided_slice"], "attr": {"element_shape": {"shape": {"unknownRank": true}}, "clear_after_read": {"b": true}, "dynamic_size": {"b": false}, "identical_element_shapes": {"b": true}, "tensor_array_name": {"s": ""}, "dtype": {"type": "DT_FLOAT"}}}, {"name": "scout-model-8.6.0/Preprocessor/map/TensorArray", "op": "TensorArrayV3", "input": ["scout-model-8.6.0/Preprocessor/map/strided_slice"], "attr": {"element_shape": {"shape": {"unknownRank": true}}, "dynamic_size": {"b": false}, "clear_after_read": {"b": true}, "identical_element_shapes": {"b": true}, "tensor_array_name": {"s": ""}, "dtype": {"type": "DT_FLOAT"}}}, {"name": "scout-model-8.6.0/Preprocessor/map/while/Less/Enter", "op": "Enter", "input": ["scout-model-8.6.0/Preprocessor/map/strided_slice"], "attr": {"T": {"type": "DT_INT32"}, "is_constant": {"b": true}, "parallel_iterations": {"i": "10"}, "frame_name": {"s": "UHJlcHJvY2Vzc29yL21hcC93aGlsZS93aGlsZV9jb250ZXh0"}}}, {"name": "scout-model-8.6.0/Preprocessor/map/while/TensorArrayWrite/TensorArrayWriteV3/Enter", "op": "Enter", "input": ["scout-model-8.6.0/Preprocessor/map/TensorArray_1"], "attr": {"T": {"type": "DT_RESOURCE"}, "is_constant": {"b": true}, "parallel_iterations": {"i": "10"}, "frame_name": {"s": "UHJlcHJvY2Vzc29yL21hcC93aGlsZS93aGlsZV9jb250ZXh0"}}}, {"name": "scout-model-8.6.0/Preprocessor/map/while/Enter_1", "op": "Enter", "input": ["scout-model-8.6.0/Preprocessor/map/TensorArray_1:1"], "attr": {"T": {"type": "DT_FLOAT"}, "is_constant": {"b": false}, "parallel_iterations": {"i": "10"}, "frame_name": {"s": "UHJlcHJvY2Vzc29yL21hcC93aGlsZS93aGlsZV9jb250ZXh0"}}}, {"name": "scout-model-8.6.0/Preprocessor/map/while/TensorArrayReadV3/Enter", "op": "Enter", "input": ["scout-model-8.6.0/Preprocessor/map/TensorArray"], "attr": {"T": {"type": "DT_RESOURCE"}, "is_constant": {"b": true}, "parallel_iterations": {"i": "10"}, "frame_name": {"s": "UHJlcHJvY2Vzc29yL21hcC93aGlsZS93aGlsZV9jb250ZXh0"}}}, {"name": "scout-model-8.6.0/Preprocessor/map/TensorArrayUnstack/TensorArrayScatter/TensorArrayScatterV3", "op": "TensorArrayScatterV3", "input": ["scout-model-8.6.0/Preprocessor/map/TensorArray", "scout-model-8.6.0/Preprocessor/map/TensorArrayUnstack/range", "scout-model-8.6.0/ToFloat", "scout-model-8.6.0/Preprocessor/map/TensorArray:1"], "attr": {"T": {"type": "DT_FLOAT"}}}, {"name": "scout-model-8.6.0/Preprocessor/map/while/Less", "op": "Less", "input": ["scout-model-8.6.0/Preprocessor/map/while/Merge", "scout-model-8.6.0/Preprocessor/map/while/Less/Enter"], "attr": {"T": {"type": "DT_INT32"}}}, {"name": "scout-model-8.6.0/Preprocessor/map/while/Merge_1", "op": "Merge", "input": ["scout-model-8.6.0/Preprocessor/map/while/Enter_1", "scout-model-8.6.0/Preprocessor/map/while/NextIteration_1"], "attr": {"T": {"type": "DT_FLOAT"}, "N": {"i": "2"}}}, {"name": "scout-model-8.6.0/Preprocessor/map/while/TensorArrayReadV3/Enter_1", "op": "Enter", "input": ["scout-model-8.6.0/Preprocessor/map/TensorArrayUnstack/TensorArrayScatter/TensorArrayScatterV3"], "attr": {"T": {"type": "DT_FLOAT"}, "is_constant": {"b": true}, "parallel_iterations": {"i": "10"}, "frame_name": {"s": "UHJlcHJvY2Vzc29yL21hcC93aGlsZS93aGlsZV9jb250ZXh0"}}}, {"name": "scout-model-8.6.0/Preprocessor/map/while/LoopCond", "op": "LoopCond", "input": ["scout-model-8.6.0/Preprocessor/map/while/Less"]}, {"name": "scout-model-8.6.0/Preprocessor/map/while/Switch", "op": "Switch", "input": ["scout-model-8.6.0/Preprocessor/map/while/Merge", "scout-model-8.6.0/Preprocessor/map/while/LoopCond"], "attr": {"T": {"type": "DT_INT32"}}}, {"name": "scout-model-8.6.0/Preprocessor/map/while/Switch_1", "op": "Switch", "input": ["scout-model-8.6.0/Preprocessor/map/while/Merge_1", "scout-model-8.6.0/Preprocessor/map/while/LoopCond"], "attr": {"T": {"type": "DT_FLOAT"}}}, {"name": "scout-model-8.6.0/Preprocessor/map/while/Identity", "op": "Identity", "input": ["scout-model-8.6.0/Preprocessor/map/while/Switch:1"], "attr": {"T": {"type": "DT_INT32"}}}, {"name": "scout-model-8.6.0/Preprocessor/map/while/Exit_1", "op": "Exit", "input": ["scout-model-8.6.0/Preprocessor/map/while/Switch_1"], "attr": {"T": {"type": "DT_FLOAT"}}}, {"name": "scout-model-8.6.0/Preprocessor/map/while/ResizeImage/resize_images/ExpandDims/dim", "op": "Const", "input": ["^scout-model-8.6.0/Preprocessor/map/while/Identity"], "attr": {"value": {"tensor": {"dtype": "DT_INT32", "tensorShape": {}}}, "dtype": {"type": "DT_INT32"}}}, {"name": "scout-model-8.6.0/Preprocessor/map/while/ResizeImage/resize_images/size", "op": "Const", "input": ["^scout-model-8.6.0/Preprocessor/map/while/Identity"], "attr": {"value": {"tensor": {"dtype": "DT_INT32", "tensorShape": {"dim": [{"size": "2"}]}}}, "dtype": {"type": "DT_INT32"}}}, {"name": "scout-model-8.6.0/Preprocessor/map/while/add/y", "op": "Const", "input": ["^scout-model-8.6.0/Preprocessor/map/while/Identity"], "attr": {"value": {"tensor": {"dtype": "DT_INT32", "tensorShape": {}}}, "dtype": {"type": "DT_INT32"}}}, {"name": "scout-model-8.6.0/Preprocessor/map/while/TensorArrayReadV3", "op": "TensorArrayReadV3", "input": ["scout-model-8.6.0/Preprocessor/map/while/TensorArrayReadV3/Enter", "scout-model-8.6.0/Preprocessor/map/while/Identity", "scout-model-8.6.0/Preprocessor/map/while/TensorArrayReadV3/Enter_1"], "attr": {"dtype": {"type": "DT_FLOAT"}}}, {"name": "scout-model-8.6.0/Preprocessor/map/TensorArrayStack/TensorArraySizeV3", "op": "TensorArraySizeV3", "input": ["scout-model-8.6.0/Preprocessor/map/TensorArray_1", "scout-model-8.6.0/Preprocessor/map/while/Exit_1"]}, {"name": "scout-model-8.6.0/Preprocessor/map/while/add", "op": "Add", "input": ["scout-model-8.6.0/Preprocessor/map/while/Identity", "scout-model-8.6.0/Preprocessor/map/while/add/y"], "attr": {"T": {"type": "DT_INT32"}}}, {"name": "scout-model-8.6.0/Preprocessor/map/while/ResizeImage/resize_images/ExpandDims", "op": "ExpandDims", "input": ["scout-model-8.6.0/Preprocessor/map/while/TensorArrayReadV3", "scout-model-8.6.0/Preprocessor/map/while/ResizeImage/resize_images/ExpandDims/dim"], "attr": {"Tdim": {"type": "DT_INT32"}, "T": {"type": "DT_FLOAT"}}}, {"name": "scout-model-8.6.0/Preprocessor/map/TensorArrayStack/range", "op": "Range", "input": ["scout-model-8.6.0/Preprocessor/map/TensorArrayStack/range/start", "scout-model-8.6.0/Preprocessor/map/TensorArrayStack/TensorArraySizeV3", "scout-model-8.6.0/Preprocessor/map/TensorArrayStack/range/delta"], "attr": {"Tidx": {"type": "DT_INT32"}}}, {"name": "scout-model-8.6.0/Preprocessor/map/while/NextIteration", "op": "NextIteration", "input": ["scout-model-8.6.0/Preprocessor/map/while/add"], "attr": {"T": {"type": "DT_INT32"}}}, {"name": "scout-model-8.6.0/Preprocessor/map/while/ResizeImage/resize_images/ResizeBilinear", "op": "ResizeBilinear", "input": ["scout-model-8.6.0/Preprocessor/map/while/ResizeImage/resize_images/ExpandDims", "scout-model-8.6.0/Preprocessor/map/while/ResizeImage/resize_images/size"], "attr": {"align_corners": {"b": false}, "half_pixel_centers": {"b": false}, "T": {"type": "DT_FLOAT"}}}, {"name": "scout-model-8.6.0/Preprocessor/map/TensorArrayStack/TensorArrayGatherV3", "op": "TensorArrayGatherV3", "input": ["scout-model-8.6.0/Preprocessor/map/TensorArray_1", "scout-model-8.6.0/Preprocessor/map/TensorArrayStack/range", "scout-model-8.6.0/Preprocessor/map/while/Exit_1"], "attr": {"element_shape": {"shape": {"dim": [{"size": "300"}, {"size": "300"}, {"size": "3"}]}}, "dtype": {"type": "DT_FLOAT"}}}, {"name": "scout-model-8.6.0/Preprocessor/map/while/ResizeImage/resize_images/Squeeze", "op": "Squeeze", "input": ["scout-model-8.6.0/Preprocessor/map/while/ResizeImage/resize_images/ResizeBilinear"], "attr": {"squeeze_dims": {"list": {"i": ["0"]}}, "T": {"type": "DT_FLOAT"}}}, {"name": "scout-model-8.6.0/Preprocessor/mul", "op": "Mul", "input": ["scout-model-8.6.0/Preprocessor/mul/x", "scout-model-8.6.0/Preprocessor/map/TensorArrayStack/TensorArrayGatherV3"], "attr": {"T": {"type": "DT_FLOAT"}}}, {"name": "scout-model-8.6.0/Preprocessor/map/while/TensorArrayWrite/TensorArrayWriteV3", "op": "TensorArrayWriteV3", "input": ["scout-model-8.6.0/Preprocessor/map/while/TensorArrayWrite/TensorArrayWriteV3/Enter", "scout-model-8.6.0/Preprocessor/map/while/Identity", "scout-model-8.6.0/Preprocessor/map/while/ResizeImage/resize_images/Squeeze", "scout-model-8.6.0/Preprocessor/map/while/Switch_1:1"], "attr": {"T": {"type": "DT_FLOAT"}}}, {"name": "scout-model-8.6.0/Preprocessor/sub", "op": "Sub", "input": ["scout-model-8.6.0/Preprocessor/mul", "scout-model-8.6.0/Preprocessor/sub/y"], "attr": {"T": {"type": "DT_FLOAT"}}}, {"name": "scout-model-8.6.0/Preprocessor/map/while/NextIteration_1", "op": "NextIteration", "input": ["scout-model-8.6.0/Preprocessor/map/while/TensorArrayWrite/TensorArrayWriteV3"], "attr": {"T": {"type": "DT_FLOAT"}}}, {"name": "scout-model-8.6.0/FeatureExtractor/MobilenetV1/zeros_6/packed/1", "op": "Const", "input": ["^scout-model-8.6.0/Preprocessor/sub"], "attr": {"value": {"tensor": {"dtype": "DT_INT32", "tensorShape": {}}}, "dtype": {"type": "DT_INT32"}}}, {"name": "scout-model-8.6.0/FeatureExtractor/MobilenetV1/zeros_6/packed/2", "op": "Const", "input": ["^scout-model-8.6.0/Preprocessor/sub"], "attr": {"value": {"tensor": {"dtype": "DT_INT32", "tensorShape": {}}}, "dtype": {"type": "DT_INT32"}}}, {"name": "scout-model-8.6.0/FeatureExtractor/MobilenetV1/zeros_6/packed/3", "op": "Const", "input": ["^scout-model-8.6.0/Preprocessor/sub"], "attr": {"value": {"tensor": {"dtype": "DT_INT32", "tensorShape": {}}}, "dtype": {"type": "DT_INT32"}}}, {"name": "scout-model-8.6.0/FeatureExtractor/MobilenetV1/zeros_6/Const", "op": "Const", "input": ["^scout-model-8.6.0/Preprocessor/sub"], "attr": {"value": {"tensor": {"dtype": "DT_FLOAT", "tensorShape": {}}}, "dtype": {"type": "DT_FLOAT"}}}, {"name": "scout-model-8.6.0/FeatureExtractor/MobilenetV1/concat_6/axis", "op": "Const", "input": ["^scout-model-8.6.0/Preprocessor/sub"], "attr": {"value": {"tensor": {"dtype": "DT_INT32", "tensorShape": {}}}, "dtype": {"type": "DT_INT32"}}}, {"name": "scout-model-8.6.0/FeatureExtractor/MobilenetV1/zeros_4/packed/1", "op": "Const", "input": ["^scout-model-8.6.0/Preprocessor/sub"], "attr": {"dtype": {"type": "DT_INT32"}, "value": {"tensor": {"dtype": "DT_INT32", "tensorShape": {}}}}}, {"name": "scout-model-8.6.0/FeatureExtractor/MobilenetV1/zeros_4/packed/2", "op": "Const", "input": ["^scout-model-8.6.0/Preprocessor/sub"], "attr": {"value": {"tensor": {"dtype": "DT_INT32", "tensorShape": {}}}, "dtype": {"type": "DT_INT32"}}}, {"name": "scout-model-8.6.0/FeatureExtractor/MobilenetV1/zeros_4/packed/3", "op": "Const", "input": ["^scout-model-8.6.0/Preprocessor/sub"], "attr": {"value": {"tensor": {"dtype": "DT_INT32", "tensorShape": {}}}, "dtype": {"type": "DT_INT32"}}}, {"name": "scout-model-8.6.0/FeatureExtractor/MobilenetV1/zeros_4/Const", "op": "Const", "input": ["^scout-model-8.6.0/Preprocessor/sub"], "attr": {"dtype": {"type": "DT_FLOAT"}, "value": {"tensor": {"dtype": "DT_FLOAT", "tensorShape": {}}}}}, {"name": "scout-model-8.6.0/FeatureExtractor/MobilenetV1/concat_4/axis", "op": "Const", "input": ["^scout-model-8.6.0/Preprocessor/sub"], "attr": {"value": {"tensor": {"dtype": "DT_INT32", "tensorShape": {}}}, "dtype": {"type": "DT_INT32"}}}, {"name": "scout-model-8.6.0/FeatureExtractor/MobilenetV1/zeros_2/packed/1", "op": "Const", "input": ["^scout-model-8.6.0/Preprocessor/sub"], "attr": {"value": {"tensor": {"dtype": "DT_INT32", "tensorShape": {}}}, "dtype": {"type": "DT_INT32"}}}, {"name": "scout-model-8.6.0/FeatureExtractor/MobilenetV1/zeros_2/packed/2", "op": "Const", "input": ["^scout-model-8.6.0/Preprocessor/sub"], "attr": {"value": {"tensor": {"dtype": "DT_INT32", "tensorShape": {}}}, "dtype": {"type": "DT_INT32"}}}, {"name": "scout-model-8.6.0/FeatureExtractor/MobilenetV1/zeros_2/packed/3", "op": "Const", "input": ["^scout-model-8.6.0/Preprocessor/sub"], "attr": {"value": {"tensor": {"dtype": "DT_INT32", "tensorShape": {}}}, "dtype": {"type": "DT_INT32"}}}, {"name": "scout-model-8.6.0/FeatureExtractor/MobilenetV1/zeros_2/Const", "op": "Const", "input": ["^scout-model-8.6.0/Preprocessor/sub"], "attr": {"value": {"tensor": {"dtype": "DT_FLOAT", "tensorShape": {}}}, "dtype": {"type": "DT_FLOAT"}}}, {"name": "scout-model-8.6.0/FeatureExtractor/MobilenetV1/concat_2/axis", "op": "Const", "input": ["^scout-model-8.6.0/Preprocessor/sub"], "attr": {"dtype": {"type": "DT_INT32"}, "value": {"tensor": {"dtype": "DT_INT32", "tensorShape": {}}}}}, {"name": "scout-model-8.6.0/FeatureExtractor/MobilenetV1/zeros/packed/1", "op": "Const", "input": ["^scout-model-8.6.0/Preprocessor/sub"], "attr": {"value": {"tensor": {"dtype": "DT_INT32", "tensorShape": {}}}, "dtype": {"type": "DT_INT32"}}}, {"name": "scout-model-8.6.0/FeatureExtractor/MobilenetV1/zeros/packed/2", "op": "Const", "input": ["^scout-model-8.6.0/Preprocessor/sub"], "attr": {"value": {"tensor": {"dtype": "DT_INT32", "tensorShape": {}}}, "dtype": {"type": "DT_INT32"}}}, {"name": "scout-model-8.6.0/FeatureExtractor/MobilenetV1/zeros/packed/3", "op": "Const", "input": ["^scout-model-8.6.0/Preprocessor/sub"], "attr": {"value": {"tensor": {"dtype": "DT_INT32", "tensorShape": {}}}, "dtype": {"type": "DT_INT32"}}}, {"name": "scout-model-8.6.0/FeatureExtractor/MobilenetV1/zeros/Const", "op": "Const", "input": ["^scout-model-8.6.0/Preprocessor/sub"], "attr": {"value": {"tensor": {"dtype": "DT_FLOAT", "tensorShape": {}}}, "dtype": {"type": "DT_FLOAT"}}}, {"name": "scout-model-8.6.0/FeatureExtractor/MobilenetV1/concat/axis", "op": "Const", "input": ["^scout-model-8.6.0/Preprocessor/sub"], "attr": {"value": {"tensor": {"dtype": "DT_INT32", "tensorShape": {}}}, "dtype": {"type": "DT_INT32"}}}, {"name": "scout-model-8.6.0/FeatureExtractor/MobilenetV1/strided_slice/stack", "op": "Const", "input": ["^scout-model-8.6.0/Preprocessor/sub"], "attr": {"value": {"tensor": {"dtype": "DT_INT32", "tensorShape": {"dim": [{"size": "1"}]}}}, "dtype": {"type": "DT_INT32"}}}, {"name": "scout-model-8.6.0/FeatureExtractor/MobilenetV1/strided_slice/stack_1", "op": "Const", "input": ["^scout-model-8.6.0/Preprocessor/sub"], "attr": {"dtype": {"type": "DT_INT32"}, "value": {"tensor": {"dtype": "DT_INT32", "tensorShape": {"dim": [{"size": "1"}]}}}}}, {"name": "scout-model-8.6.0/FeatureExtractor/MobilenetV1/strided_slice/stack_2", "op": "Const", "input": ["^scout-model-8.6.0/Preprocessor/sub"], "attr": {"value": {"tensor": {"dtype": "DT_INT32", "tensorShape": {"dim": [{"size": "1"}]}}}, "dtype": {"type": "DT_INT32"}}}, {"name": "scout-model-8.6.0/FeatureExtractor/MobilenetV1/zeros_1/packed/1", "op": "Const", "input": ["^scout-model-8.6.0/Preprocessor/sub"], "attr": {"value": {"tensor": {"dtype": "DT_INT32", "tensorShape": {}}}, "dtype": {"type": "DT_INT32"}}}, {"name": "scout-model-8.6.0/FeatureExtractor/MobilenetV1/zeros_1/packed/2", "op": "Const", "input": ["^scout-model-8.6.0/Preprocessor/sub"], "attr": {"value": {"tensor": {"dtype": "DT_INT32", "tensorShape": {}}}, "dtype": {"type": "DT_INT32"}}}, {"name": "scout-model-8.6.0/FeatureExtractor/MobilenetV1/zeros_1/packed/3", "op": "Const", "input": ["^scout-model-8.6.0/Preprocessor/sub"], "attr": {"value": {"tensor": {"dtype": "DT_INT32", "tensorShape": {}}}, "dtype": {"type": "DT_INT32"}}}, {"name": "scout-model-8.6.0/FeatureExtractor/MobilenetV1/zeros_1/Const", "op": "Const", "input": ["^scout-model-8.6.0/Preprocessor/sub"], "attr": {"dtype": {"type": "DT_FLOAT"}, "value": {"tensor": {"dtype": "DT_FLOAT", "tensorShape": {}}}}}, {"name": "scout-model-8.6.0/FeatureExtractor/MobilenetV1/concat_1/axis", "op": "Const", "input": ["^scout-model-8.6.0/Preprocessor/sub"], "attr": {"value": {"tensor": {"dtype": "DT_INT32", "tensorShape": {}}}, "dtype": {"type": "DT_INT32"}}}, {"name": "scout-model-8.6.0/FeatureExtractor/MobilenetV1/strided_slice_1/stack", "op": "Const", "input": ["^scout-model-8.6.0/Preprocessor/sub"], "attr": {"dtype": {"type": "DT_INT32"}, "value": {"tensor": {"dtype": "DT_INT32", "tensorShape": {"dim": [{"size": "1"}]}}}}}, {"name": "scout-model-8.6.0/FeatureExtractor/MobilenetV1/strided_slice_1/stack_1", "op": "Const", "input": ["^scout-model-8.6.0/Preprocessor/sub"], "attr": {"dtype": {"type": "DT_INT32"}, "value": {"tensor": {"dtype": "DT_INT32", "tensorShape": {"dim": [{"size": "1"}]}}}}}, {"name": "scout-model-8.6.0/FeatureExtractor/MobilenetV1/strided_slice_1/stack_2", "op": "Const", "input": ["^scout-model-8.6.0/Preprocessor/sub"], "attr": {"value": {"tensor": {"dtype": "DT_INT32", "tensorShape": {"dim": [{"size": "1"}]}}}, "dtype": {"type": "DT_INT32"}}}, {"name": "scout-model-8.6.0/FeatureExtractor/MobilenetV1/zeros_3/packed/1", "op": "Const", "input": ["^scout-model-8.6.0/Preprocessor/sub"], "attr": {"value": {"tensor": {"dtype": "DT_INT32", "tensorShape": {}}}, "dtype": {"type": "DT_INT32"}}}, {"name": "scout-model-8.6.0/FeatureExtractor/MobilenetV1/zeros_3/packed/2", "op": "Const", "input": ["^scout-model-8.6.0/Preprocessor/sub"], "attr": {"value": {"tensor": {"dtype": "DT_INT32", "tensorShape": {}}}, "dtype": {"type": "DT_INT32"}}}, {"name": "scout-model-8.6.0/FeatureExtractor/MobilenetV1/zeros_3/packed/3", "op": "Const", "input": ["^scout-model-8.6.0/Preprocessor/sub"], "attr": {"value": {"tensor": {"dtype": "DT_INT32", "tensorShape": {}}}, "dtype": {"type": "DT_INT32"}}}, {"name": "scout-model-8.6.0/FeatureExtractor/MobilenetV1/zeros_3/Const", "op": "Const", "input": ["^scout-model-8.6.0/Preprocessor/sub"], "attr": {"value": {"tensor": {"dtype": "DT_FLOAT", "tensorShape": {}}}, "dtype": {"type": "DT_FLOAT"}}}, {"name": "scout-model-8.6.0/FeatureExtractor/MobilenetV1/concat_3/axis", "op": "Const", "input": ["^scout-model-8.6.0/Preprocessor/sub"], "attr": {"dtype": {"type": "DT_INT32"}, "value": {"tensor": {"dtype": "DT_INT32", "tensorShape": {}}}}}, {"name": "scout-model-8.6.0/FeatureExtractor/MobilenetV1/strided_slice_2/stack", "op": "Const", "input": ["^scout-model-8.6.0/Preprocessor/sub"], "attr": {"value": {"tensor": {"dtype": "DT_INT32", "tensorShape": {"dim": [{"size": "1"}]}}}, "dtype": {"type": "DT_INT32"}}}, {"name": "scout-model-8.6.0/FeatureExtractor/MobilenetV1/strided_slice_2/stack_1", "op": "Const", "input": ["^scout-model-8.6.0/Preprocessor/sub"], "attr": {"value": {"tensor": {"dtype": "DT_INT32", "tensorShape": {"dim": [{"size": "1"}]}}}, "dtype": {"type": "DT_INT32"}}}, {"name": "scout-model-8.6.0/FeatureExtractor/MobilenetV1/strided_slice_2/stack_2", "op": "Const", "input": ["^scout-model-8.6.0/Preprocessor/sub"], "attr": {"value": {"tensor": {"dtype": "DT_INT32", "tensorShape": {"dim": [{"size": "1"}]}}}, "dtype": {"type": "DT_INT32"}}}, {"name": "scout-model-8.6.0/FeatureExtractor/MobilenetV1/zeros_5/packed/1", "op": "Const", "input": ["^scout-model-8.6.0/Preprocessor/sub"], "attr": {"value": {"tensor": {"dtype": "DT_INT32", "tensorShape": {}}}, "dtype": {"type": "DT_INT32"}}}, {"name": "scout-model-8.6.0/FeatureExtractor/MobilenetV1/zeros_5/packed/2", "op": "Const", "input": ["^scout-model-8.6.0/Preprocessor/sub"], "attr": {"value": {"tensor": {"dtype": "DT_INT32", "tensorShape": {}}}, "dtype": {"type": "DT_INT32"}}}, {"name": "scout-model-8.6.0/FeatureExtractor/MobilenetV1/zeros_5/packed/3", "op": "Const", "input": ["^scout-model-8.6.0/Preprocessor/sub"], "attr": {"value": {"tensor": {"dtype": "DT_INT32", "tensorShape": {}}}, "dtype": {"type": "DT_INT32"}}}, {"name": "scout-model-8.6.0/FeatureExtractor/MobilenetV1/zeros_5/Const", "op": "Const", "input": ["^scout-model-8.6.0/Preprocessor/sub"], "attr": {"value": {"tensor": {"dtype": "DT_FLOAT", "tensorShape": {}}}, "dtype": {"type": "DT_FLOAT"}}}, {"name": "scout-model-8.6.0/FeatureExtractor/MobilenetV1/concat_5/axis", "op": "Const", "input": ["^scout-model-8.6.0/Preprocessor/sub"], "attr": {"value": {"tensor": {"dtype": "DT_INT32", "tensorShape": {}}}, "dtype": {"type": "DT_INT32"}}}, {"name": "scout-model-8.6.0/FeatureExtractor/MobilenetV1/strided_slice_3/stack", "op": "Const", "input": ["^scout-model-8.6.0/Preprocessor/sub"], "attr": {"dtype": {"type": "DT_INT32"}, "value": {"tensor": {"dtype": "DT_INT32", "tensorShape": {"dim": [{"size": "1"}]}}}}}, {"name": "scout-model-8.6.0/FeatureExtractor/MobilenetV1/strided_slice_3/stack_1", "op": "Const", "input": ["^scout-model-8.6.0/Preprocessor/sub"], "attr": {"value": {"tensor": {"dtype": "DT_INT32", "tensorShape": {"dim": [{"size": "1"}]}}}, "dtype": {"type": "DT_INT32"}}}, {"name": "scout-model-8.6.0/FeatureExtractor/MobilenetV1/strided_slice_3/stack_2", "op": "Const", "input": ["^scout-model-8.6.0/Preprocessor/sub"], "attr": {"value": {"tensor": {"dtype": "DT_INT32", "tensorShape": {"dim": [{"size": "1"}]}}}, "dtype": {"type": "DT_INT32"}}}, {"name": "scout-model-8.6.0/FeatureExtractor/MobilenetV1/zeros_7/packed/1", "op": "Const", "input": ["^scout-model-8.6.0/Preprocessor/sub"], "attr": {"value": {"tensor": {"dtype": "DT_INT32", "tensorShape": {}}}, "dtype": {"type": "DT_INT32"}}}, {"name": "scout-model-8.6.0/FeatureExtractor/MobilenetV1/zeros_7/packed/2", "op": "Const", "input": ["^scout-model-8.6.0/Preprocessor/sub"], "attr": {"value": {"tensor": {"dtype": "DT_INT32", "tensorShape": {}}}, "dtype": {"type": "DT_INT32"}}}, {"name": "scout-model-8.6.0/FeatureExtractor/MobilenetV1/zeros_7/packed/3", "op": "Const", "input": ["^scout-model-8.6.0/Preprocessor/sub"], "attr": {"value": {"tensor": {"dtype": "DT_INT32", "tensorShape": {}}}, "dtype": {"type": "DT_INT32"}}}, {"name": "scout-model-8.6.0/FeatureExtractor/MobilenetV1/zeros_7/Const", "op": "Const", "input": ["^scout-model-8.6.0/Preprocessor/sub"], "attr": {"value": {"tensor": {"dtype": "DT_FLOAT", "tensorShape": {}}}, "dtype": {"type": "DT_FLOAT"}}}, {"name": "scout-model-8.6.0/FeatureExtractor/MobilenetV1/concat_7/axis", "op": "Const", "input": ["^scout-model-8.6.0/Preprocessor/sub"], "attr": {"value": {"tensor": {"dtype": "DT_INT32", "tensorShape": {}}}, "dtype": {"type": "DT_INT32"}}}, {"name": "scout-model-8.6.0/FeatureExtractor/MobilenetV1/MobilenetV1/Conv2d_0/Relu6", "op": "_FusedConv2D", "input": ["scout-model-8.6.0/Preprocessor/sub", "scout-model-8.6.0/FeatureExtractor/MobilenetV1/MobilenetV1/Conv2d_0/Conv2D_weights", "scout-model-8.6.0/FeatureExtractor/MobilenetV1/MobilenetV1/Conv2d_0/Conv2D_bn_offset"], "device": "/device:CPU:0", "attr": {"strides": {"list": {"i": ["1", "2", "2", "1"]}}, "data_format": {"s": "TkhXQw=="}, "explicit_paddings": {"list": {}}, "use_cudnn_on_gpu": {"b": true}, "num_args": {"i": "1"}, "epsilon": {"f": 0.0}, "padding": {"s": "U0FNRQ=="}, "fused_ops": {"list": {"s": ["Qmlhc0FkZA==", "UmVsdTY="]}}, "dilations": {"list": {"i": ["1", "1", "1", "1"]}}, "T": {"type": "DT_FLOAT"}}}, {"name": "scout-model-8.6.0/FeatureExtractor/MobilenetV1/MobilenetV1/Conv2d_1_depthwise/depthwise", "op": "FusedDepthwiseConv2dNative", "input": ["scout-model-8.6.0/FeatureExtractor/MobilenetV1/MobilenetV1/Conv2d_0/Relu6", "scout-model-8.6.0/FeatureExtractor/MobilenetV1/MobilenetV1/Conv2d_1_depthwise/depthwise_weights", "scout-model-8.6.0/FeatureExtractor/MobilenetV1/MobilenetV1/Conv2d_1_depthwise/depthwise_bn_offset"], "attr": {"dilations": {"list": {"i": ["1", "1", "1", "1"]}}, "T": {"type": "DT_FLOAT"}, "strides": {"list": {"i": ["1", "1", "1", "1"]}}, "data_format": {"s": "TkhXQw=="}, "explicit_paddings": {"list": {}}, "num_args": {"i": "1"}, "padding": {"s": "U0FNRQ=="}, "fused_ops": {"list": {"s": ["Qmlhc0FkZA==", "UmVsdTY="]}}}}, {"name": "scout-model-8.6.0/FeatureExtractor/MobilenetV1/MobilenetV1/Conv2d_1_pointwise/Relu6", "op": "_FusedConv2D", "input": ["scout-model-8.6.0/FeatureExtractor/MobilenetV1/MobilenetV1/Conv2d_1_depthwise/depthwise", "scout-model-8.6.0/FeatureExtractor/MobilenetV1/MobilenetV1/Conv2d_1_pointwise/Conv2D_weights", "scout-model-8.6.0/FeatureExtractor/MobilenetV1/MobilenetV1/Conv2d_1_pointwise/Conv2D_bn_offset"], "device": "/device:CPU:0", "attr": {"dilations": {"list": {"i": ["1", "1", "1", "1"]}}, "T": {"type": "DT_FLOAT"}, "strides": {"list": {"i": ["1", "1", "1", "1"]}}, "data_format": {"s": "TkhXQw=="}, "explicit_paddings": {"list": {}}, "use_cudnn_on_gpu": {"b": true}, "num_args": {"i": "1"}, "epsilon": {"f": 0.0}, "padding": {"s": "U0FNRQ=="}, "fused_ops": {"list": {"s": ["Qmlhc0FkZA==", "UmVsdTY="]}}}}, {"name": "scout-model-8.6.0/FeatureExtractor/MobilenetV1/MobilenetV1/Conv2d_2_depthwise/depthwise", "op": "FusedDepthwiseConv2dNative", "input": ["scout-model-8.6.0/FeatureExtractor/MobilenetV1/MobilenetV1/Conv2d_1_pointwise/Relu6", "scout-model-8.6.0/FeatureExtractor/MobilenetV1/MobilenetV1/Conv2d_2_depthwise/depthwise_weights", "scout-model-8.6.0/FeatureExtractor/MobilenetV1/MobilenetV1/Conv2d_2_depthwise/depthwise_bn_offset"], "attr": {"dilations": {"list": {"i": ["1", "1", "1", "1"]}}, "T": {"type": "DT_FLOAT"}, "data_format": {"s": "TkhXQw=="}, "strides": {"list": {"i": ["1", "2", "2", "1"]}}, "explicit_paddings": {"list": {}}, "num_args": {"i": "1"}, "padding": {"s": "U0FNRQ=="}, "fused_ops": {"list": {"s": ["Qmlhc0FkZA==", "UmVsdTY="]}}}}, {"name": "scout-model-8.6.0/FeatureExtractor/MobilenetV1/MobilenetV1/Conv2d_2_pointwise/Relu6", "op": "_FusedConv2D", "input": ["scout-model-8.6.0/FeatureExtractor/MobilenetV1/MobilenetV1/Conv2d_2_depthwise/depthwise", "scout-model-8.6.0/FeatureExtractor/MobilenetV1/MobilenetV1/Conv2d_2_pointwise/Conv2D_weights", "scout-model-8.6.0/FeatureExtractor/MobilenetV1/MobilenetV1/Conv2d_2_pointwise/Conv2D_bn_offset"], "device": "/device:CPU:0", "attr": {"data_format": {"s": "TkhXQw=="}, "strides": {"list": {"i": ["1", "1", "1", "1"]}}, "explicit_paddings": {"list": {}}, "use_cudnn_on_gpu": {"b": true}, "num_args": {"i": "1"}, "epsilon": {"f": 0.0}, "padding": {"s": "U0FNRQ=="}, "fused_ops": {"list": {"s": ["Qmlhc0FkZA==", "UmVsdTY="]}}, "dilations": {"list": {"i": ["1", "1", "1", "1"]}}, "T": {"type": "DT_FLOAT"}}}, {"name": "scout-model-8.6.0/FeatureExtractor/MobilenetV1/MobilenetV1/Conv2d_3_depthwise/depthwise", "op": "FusedDepthwiseConv2dNative", "input": ["scout-model-8.6.0/FeatureExtractor/MobilenetV1/MobilenetV1/Conv2d_2_pointwise/Relu6", "scout-model-8.6.0/FeatureExtractor/MobilenetV1/MobilenetV1/Conv2d_3_depthwise/depthwise_weights", "scout-model-8.6.0/FeatureExtractor/MobilenetV1/MobilenetV1/Conv2d_3_depthwise/depthwise_bn_offset"], "attr": {"dilations": {"list": {"i": ["1", "1", "1", "1"]}}, "T": {"type": "DT_FLOAT"}, "data_format": {"s": "TkhXQw=="}, "strides": {"list": {"i": ["1", "1", "1", "1"]}}, "explicit_paddings": {"list": {}}, "num_args": {"i": "1"}, "padding": {"s": "U0FNRQ=="}, "fused_ops": {"list": {"s": ["Qmlhc0FkZA==", "UmVsdTY="]}}}}, {"name": "scout-model-8.6.0/FeatureExtractor/MobilenetV1/MobilenetV1/Conv2d_3_pointwise/Relu6", "op": "_FusedConv2D", "input": ["scout-model-8.6.0/FeatureExtractor/MobilenetV1/MobilenetV1/Conv2d_3_depthwise/depthwise", "scout-model-8.6.0/FeatureExtractor/MobilenetV1/MobilenetV1/Conv2d_3_pointwise/Conv2D_weights", "scout-model-8.6.0/FeatureExtractor/MobilenetV1/MobilenetV1/Conv2d_3_pointwise/Conv2D_bn_offset"], "device": "/device:CPU:0", "attr": {"dilations": {"list": {"i": ["1", "1", "1", "1"]}}, "T": {"type": "DT_FLOAT"}, "data_format": {"s": "TkhXQw=="}, "strides": {"list": {"i": ["1", "1", "1", "1"]}}, "explicit_paddings": {"list": {}}, "use_cudnn_on_gpu": {"b": true}, "num_args": {"i": "1"}, "epsilon": {"f": 0.0}, "padding": {"s": "U0FNRQ=="}, "fused_ops": {"list": {"s": ["Qmlhc0FkZA==", "UmVsdTY="]}}}}, {"name": "scout-model-8.6.0/FeatureExtractor/MobilenetV1/MobilenetV1/Conv2d_4_depthwise/depthwise", "op": "FusedDepthwiseConv2dNative", "input": ["scout-model-8.6.0/FeatureExtractor/MobilenetV1/MobilenetV1/Conv2d_3_pointwise/Relu6", "scout-model-8.6.0/FeatureExtractor/MobilenetV1/MobilenetV1/Conv2d_4_depthwise/depthwise_weights", "scout-model-8.6.0/FeatureExtractor/MobilenetV1/MobilenetV1/Conv2d_4_depthwise/depthwise_bn_offset"], "attr": {"dilations": {"list": {"i": ["1", "1", "1", "1"]}}, "T": {"type": "DT_FLOAT"}, "strides": {"list": {"i": ["1", "2", "2", "1"]}}, "data_format": {"s": "TkhXQw=="}, "explicit_paddings": {"list": {}}, "num_args": {"i": "1"}, "padding": {"s": "U0FNRQ=="}, "fused_ops": {"list": {"s": ["Qmlhc0FkZA==", "UmVsdTY="]}}}}, {"name": "scout-model-8.6.0/FeatureExtractor/MobilenetV1/MobilenetV1/Conv2d_4_pointwise/Relu6", "op": "_FusedConv2D", "input": ["scout-model-8.6.0/FeatureExtractor/MobilenetV1/MobilenetV1/Conv2d_4_depthwise/depthwise", "scout-model-8.6.0/FeatureExtractor/MobilenetV1/MobilenetV1/Conv2d_4_pointwise/Conv2D_weights", "scout-model-8.6.0/FeatureExtractor/MobilenetV1/MobilenetV1/Conv2d_4_pointwise/Conv2D_bn_offset"], "device": "/device:CPU:0", "attr": {"dilations": {"list": {"i": ["1", "1", "1", "1"]}}, "T": {"type": "DT_FLOAT"}, "strides": {"list": {"i": ["1", "1", "1", "1"]}}, "data_format": {"s": "TkhXQw=="}, "explicit_paddings": {"list": {}}, "use_cudnn_on_gpu": {"b": true}, "num_args": {"i": "1"}, "epsilon": {"f": 0.0}, "padding": {"s": "U0FNRQ=="}, "fused_ops": {"list": {"s": ["Qmlhc0FkZA==", "UmVsdTY="]}}}}, {"name": "scout-model-8.6.0/FeatureExtractor/MobilenetV1/MobilenetV1/Conv2d_5_depthwise/depthwise", "op": "FusedDepthwiseConv2dNative", "input": ["scout-model-8.6.0/FeatureExtractor/MobilenetV1/MobilenetV1/Conv2d_4_pointwise/Relu6", "scout-model-8.6.0/FeatureExtractor/MobilenetV1/MobilenetV1/Conv2d_5_depthwise/depthwise_weights", "scout-model-8.6.0/FeatureExtractor/MobilenetV1/MobilenetV1/Conv2d_5_depthwise/depthwise_bn_offset"], "attr": {"strides": {"list": {"i": ["1", "1", "1", "1"]}}, "data_format": {"s": "TkhXQw=="}, "explicit_paddings": {"list": {}}, "num_args": {"i": "1"}, "padding": {"s": "U0FNRQ=="}, "fused_ops": {"list": {"s": ["Qmlhc0FkZA==", "UmVsdTY="]}}, "dilations": {"list": {"i": ["1", "1", "1", "1"]}}, "T": {"type": "DT_FLOAT"}}}, {"name": "scout-model-8.6.0/FeatureExtractor/MobilenetV1/MobilenetV1/Conv2d_5_pointwise/Relu6", "op": "_FusedConv2D", "input": ["scout-model-8.6.0/FeatureExtractor/MobilenetV1/MobilenetV1/Conv2d_5_depthwise/depthwise", "scout-model-8.6.0/FeatureExtractor/MobilenetV1/MobilenetV1/Conv2d_5_pointwise/Conv2D_weights", "scout-model-8.6.0/FeatureExtractor/MobilenetV1/MobilenetV1/Conv2d_5_pointwise/Conv2D_bn_offset"], "device": "/device:CPU:0", "attr": {"dilations": {"list": {"i": ["1", "1", "1", "1"]}}, "T": {"type": "DT_FLOAT"}, "data_format": {"s": "TkhXQw=="}, "strides": {"list": {"i": ["1", "1", "1", "1"]}}, "explicit_paddings": {"list": {}}, "use_cudnn_on_gpu": {"b": true}, "num_args": {"i": "1"}, "epsilon": {"f": 0.0}, "padding": {"s": "U0FNRQ=="}, "fused_ops": {"list": {"s": ["Qmlhc0FkZA==", "UmVsdTY="]}}}}, {"name": "scout-model-8.6.0/FeatureExtractor/MobilenetV1/MobilenetV1/Conv2d_6_depthwise/depthwise", "op": "FusedDepthwiseConv2dNative", "input": ["scout-model-8.6.0/FeatureExtractor/MobilenetV1/MobilenetV1/Conv2d_5_pointwise/Relu6", "scout-model-8.6.0/FeatureExtractor/MobilenetV1/MobilenetV1/Conv2d_6_depthwise/depthwise_weights", "scout-model-8.6.0/FeatureExtractor/MobilenetV1/MobilenetV1/Conv2d_6_depthwise/depthwise_bn_offset"], "attr": {"explicit_paddings": {"list": {}}, "num_args": {"i": "1"}, "padding": {"s": "U0FNRQ=="}, "fused_ops": {"list": {"s": ["Qmlhc0FkZA==", "UmVsdTY="]}}, "dilations": {"list": {"i": ["1", "1", "1", "1"]}}, "T": {"type": "DT_FLOAT"}, "strides": {"list": {"i": ["1", "2", "2", "1"]}}, "data_format": {"s": "TkhXQw=="}}}, {"name": "scout-model-8.6.0/FeatureExtractor/MobilenetV1/MobilenetV1/Conv2d_6_pointwise/Relu6", "op": "_FusedConv2D", "input": ["scout-model-8.6.0/FeatureExtractor/MobilenetV1/MobilenetV1/Conv2d_6_depthwise/depthwise", "scout-model-8.6.0/FeatureExtractor/MobilenetV1/MobilenetV1/Conv2d_6_pointwise/Conv2D_weights", "scout-model-8.6.0/FeatureExtractor/MobilenetV1/MobilenetV1/Conv2d_6_pointwise/Conv2D_bn_offset"], "device": "/device:CPU:0", "attr": {"dilations": {"list": {"i": ["1", "1", "1", "1"]}}, "T": {"type": "DT_FLOAT"}, "strides": {"list": {"i": ["1", "1", "1", "1"]}}, "data_format": {"s": "TkhXQw=="}, "use_cudnn_on_gpu": {"b": true}, "explicit_paddings": {"list": {}}, "num_args": {"i": "1"}, "epsilon": {"f": 0.0}, "padding": {"s": "U0FNRQ=="}, "fused_ops": {"list": {"s": ["Qmlhc0FkZA==", "UmVsdTY="]}}}}, {"name": "scout-model-8.6.0/FeatureExtractor/MobilenetV1/MobilenetV1/Conv2d_7_depthwise/depthwise", "op": "FusedDepthwiseConv2dNative", "input": ["scout-model-8.6.0/FeatureExtractor/MobilenetV1/MobilenetV1/Conv2d_6_pointwise/Relu6", "scout-model-8.6.0/FeatureExtractor/MobilenetV1/MobilenetV1/Conv2d_7_depthwise/depthwise_weights", "scout-model-8.6.0/FeatureExtractor/MobilenetV1/MobilenetV1/Conv2d_7_depthwise/depthwise_bn_offset"], "attr": {"dilations": {"list": {"i": ["1", "1", "1", "1"]}}, "T": {"type": "DT_FLOAT"}, "data_format": {"s": "TkhXQw=="}, "strides": {"list": {"i": ["1", "1", "1", "1"]}}, "explicit_paddings": {"list": {}}, "num_args": {"i": "1"}, "padding": {"s": "U0FNRQ=="}, "fused_ops": {"list": {"s": ["Qmlhc0FkZA==", "UmVsdTY="]}}}}, {"name": "scout-model-8.6.0/FeatureExtractor/MobilenetV1/MobilenetV1/Conv2d_7_pointwise/Relu6", "op": "_FusedConv2D", "input": ["scout-model-8.6.0/FeatureExtractor/MobilenetV1/MobilenetV1/Conv2d_7_depthwise/depthwise", "scout-model-8.6.0/FeatureExtractor/MobilenetV1/MobilenetV1/Conv2d_7_pointwise/Conv2D_weights", "scout-model-8.6.0/FeatureExtractor/MobilenetV1/MobilenetV1/Conv2d_7_pointwise/Conv2D_bn_offset"], "device": "/device:CPU:0", "attr": {"dilations": {"list": {"i": ["1", "1", "1", "1"]}}, "T": {"type": "DT_FLOAT"}, "data_format": {"s": "TkhXQw=="}, "strides": {"list": {"i": ["1", "1", "1", "1"]}}, "use_cudnn_on_gpu": {"b": true}, "explicit_paddings": {"list": {}}, "num_args": {"i": "1"}, "epsilon": {"f": 0.0}, "padding": {"s": "U0FNRQ=="}, "fused_ops": {"list": {"s": ["Qmlhc0FkZA==", "UmVsdTY="]}}}}, {"name": "scout-model-8.6.0/FeatureExtractor/MobilenetV1/MobilenetV1/Conv2d_8_depthwise/depthwise", "op": "FusedDepthwiseConv2dNative", "input": ["scout-model-8.6.0/FeatureExtractor/MobilenetV1/MobilenetV1/Conv2d_7_pointwise/Relu6", "scout-model-8.6.0/FeatureExtractor/MobilenetV1/MobilenetV1/Conv2d_8_depthwise/depthwise_weights", "scout-model-8.6.0/FeatureExtractor/MobilenetV1/MobilenetV1/Conv2d_8_depthwise/depthwise_bn_offset"], "attr": {"data_format": {"s": "TkhXQw=="}, "strides": {"list": {"i": ["1", "1", "1", "1"]}}, "explicit_paddings": {"list": {}}, "num_args": {"i": "1"}, "padding": {"s": "U0FNRQ=="}, "fused_ops": {"list": {"s": ["Qmlhc0FkZA==", "UmVsdTY="]}}, "dilations": {"list": {"i": ["1", "1", "1", "1"]}}, "T": {"type": "DT_FLOAT"}}}, {"name": "scout-model-8.6.0/FeatureExtractor/MobilenetV1/MobilenetV1/Conv2d_8_pointwise/Relu6", "op": "_FusedConv2D", "input": ["scout-model-8.6.0/FeatureExtractor/MobilenetV1/MobilenetV1/Conv2d_8_depthwise/depthwise", "scout-model-8.6.0/FeatureExtractor/MobilenetV1/MobilenetV1/Conv2d_8_pointwise/Conv2D_weights", "scout-model-8.6.0/FeatureExtractor/MobilenetV1/MobilenetV1/Conv2d_8_pointwise/Conv2D_bn_offset"], "device": "/device:CPU:0", "attr": {"strides": {"list": {"i": ["1", "1", "1", "1"]}}, "data_format": {"s": "TkhXQw=="}, "explicit_paddings": {"list": {}}, "use_cudnn_on_gpu": {"b": true}, "num_args": {"i": "1"}, "epsilon": {"f": 0.0}, "padding": {"s": "U0FNRQ=="}, "fused_ops": {"list": {"s": ["Qmlhc0FkZA==", "UmVsdTY="]}}, "dilations": {"list": {"i": ["1", "1", "1", "1"]}}, "T": {"type": "DT_FLOAT"}}}, {"name": "scout-model-8.6.0/FeatureExtractor/MobilenetV1/MobilenetV1/Conv2d_9_depthwise/depthwise", "op": "FusedDepthwiseConv2dNative", "input": ["scout-model-8.6.0/FeatureExtractor/MobilenetV1/MobilenetV1/Conv2d_8_pointwise/Relu6", "scout-model-8.6.0/FeatureExtractor/MobilenetV1/MobilenetV1/Conv2d_9_depthwise/depthwise_weights", "scout-model-8.6.0/FeatureExtractor/MobilenetV1/MobilenetV1/Conv2d_9_depthwise/depthwise_bn_offset"], "attr": {"dilations": {"list": {"i": ["1", "1", "1", "1"]}}, "T": {"type": "DT_FLOAT"}, "strides": {"list": {"i": ["1", "1", "1", "1"]}}, "data_format": {"s": "TkhXQw=="}, "explicit_paddings": {"list": {}}, "num_args": {"i": "1"}, "padding": {"s": "U0FNRQ=="}, "fused_ops": {"list": {"s": ["Qmlhc0FkZA==", "UmVsdTY="]}}}}, {"name": "scout-model-8.6.0/FeatureExtractor/MobilenetV1/MobilenetV1/Conv2d_9_pointwise/Relu6", "op": "_FusedConv2D", "input": ["scout-model-8.6.0/FeatureExtractor/MobilenetV1/MobilenetV1/Conv2d_9_depthwise/depthwise", "scout-model-8.6.0/FeatureExtractor/MobilenetV1/MobilenetV1/Conv2d_9_pointwise/Conv2D_weights", "scout-model-8.6.0/FeatureExtractor/MobilenetV1/MobilenetV1/Conv2d_9_pointwise/Conv2D_bn_offset"], "device": "/device:CPU:0", "attr": {"dilations": {"list": {"i": ["1", "1", "1", "1"]}}, "T": {"type": "DT_FLOAT"}, "strides": {"list": {"i": ["1", "1", "1", "1"]}}, "data_format": {"s": "TkhXQw=="}, "use_cudnn_on_gpu": {"b": true}, "explicit_paddings": {"list": {}}, "num_args": {"i": "1"}, "epsilon": {"f": 0.0}, "padding": {"s": "U0FNRQ=="}, "fused_ops": {"list": {"s": ["Qmlhc0FkZA==", "UmVsdTY="]}}}}, {"name": "scout-model-8.6.0/FeatureExtractor/MobilenetV1/MobilenetV1/Conv2d_10_depthwise/depthwise", "op": "FusedDepthwiseConv2dNative", "input": ["scout-model-8.6.0/FeatureExtractor/MobilenetV1/MobilenetV1/Conv2d_9_pointwise/Relu6", "scout-model-8.6.0/FeatureExtractor/MobilenetV1/MobilenetV1/Conv2d_10_depthwise/depthwise_weights", "scout-model-8.6.0/FeatureExtractor/MobilenetV1/MobilenetV1/Conv2d_10_depthwise/depthwise_bn_offset"], "attr": {"num_args": {"i": "1"}, "padding": {"s": "U0FNRQ=="}, "fused_ops": {"list": {"s": ["Qmlhc0FkZA==", "UmVsdTY="]}}, "dilations": {"list": {"i": ["1", "1", "1", "1"]}}, "T": {"type": "DT_FLOAT"}, "data_format": {"s": "TkhXQw=="}, "strides": {"list": {"i": ["1", "1", "1", "1"]}}, "explicit_paddings": {"list": {}}}}, {"name": "scout-model-8.6.0/FeatureExtractor/MobilenetV1/MobilenetV1/Conv2d_10_pointwise/Relu6", "op": "_FusedConv2D", "input": ["scout-model-8.6.0/FeatureExtractor/MobilenetV1/MobilenetV1/Conv2d_10_depthwise/depthwise", "scout-model-8.6.0/FeatureExtractor/MobilenetV1/MobilenetV1/Conv2d_10_pointwise/Conv2D_weights", "scout-model-8.6.0/FeatureExtractor/MobilenetV1/MobilenetV1/Conv2d_10_pointwise/Conv2D_bn_offset"], "device": "/device:CPU:0", "attr": {"epsilon": {"f": 0.0}, "padding": {"s": "U0FNRQ=="}, "fused_ops": {"list": {"s": ["Qmlhc0FkZA==", "UmVsdTY="]}}, "dilations": {"list": {"i": ["1", "1", "1", "1"]}}, "T": {"type": "DT_FLOAT"}, "strides": {"list": {"i": ["1", "1", "1", "1"]}}, "data_format": {"s": "TkhXQw=="}, "use_cudnn_on_gpu": {"b": true}, "explicit_paddings": {"list": {}}, "num_args": {"i": "1"}}}, {"name": "scout-model-8.6.0/FeatureExtractor/MobilenetV1/MobilenetV1/Conv2d_11_depthwise/depthwise", "op": "FusedDepthwiseConv2dNative", "input": ["scout-model-8.6.0/FeatureExtractor/MobilenetV1/MobilenetV1/Conv2d_10_pointwise/Relu6", "scout-model-8.6.0/FeatureExtractor/MobilenetV1/MobilenetV1/Conv2d_11_depthwise/depthwise_weights", "scout-model-8.6.0/FeatureExtractor/MobilenetV1/MobilenetV1/Conv2d_11_depthwise/depthwise_bn_offset"], "attr": {"num_args": {"i": "1"}, "padding": {"s": "U0FNRQ=="}, "fused_ops": {"list": {"s": ["Qmlhc0FkZA==", "UmVsdTY="]}}, "dilations": {"list": {"i": ["1", "1", "1", "1"]}}, "T": {"type": "DT_FLOAT"}, "strides": {"list": {"i": ["1", "1", "1", "1"]}}, "data_format": {"s": "TkhXQw=="}, "explicit_paddings": {"list": {}}}}, {"name": "scout-model-8.6.0/FeatureExtractor/MobilenetV1/MobilenetV1/Conv2d_11_pointwise/Relu6", "op": "_FusedConv2D", "input": ["scout-model-8.6.0/FeatureExtractor/MobilenetV1/MobilenetV1/Conv2d_11_depthwise/depthwise", "scout-model-8.6.0/FeatureExtractor/MobilenetV1/MobilenetV1/Conv2d_11_pointwise/Conv2D_weights", "scout-model-8.6.0/FeatureExtractor/MobilenetV1/MobilenetV1/Conv2d_11_pointwise/Conv2D_bn_offset"], "device": "/device:CPU:0", "attr": {"epsilon": {"f": 0.0}, "padding": {"s": "U0FNRQ=="}, "fused_ops": {"list": {"s": ["Qmlhc0FkZA==", "UmVsdTY="]}}, "dilations": {"list": {"i": ["1", "1", "1", "1"]}}, "T": {"type": "DT_FLOAT"}, "data_format": {"s": "TkhXQw=="}, "strides": {"list": {"i": ["1", "1", "1", "1"]}}, "explicit_paddings": {"list": {}}, "use_cudnn_on_gpu": {"b": true}, "num_args": {"i": "1"}}}, {"name": "scout-model-8.6.0/BoxPredictor_0/ClassPredictor/BiasAdd", "op": "_FusedConv2D", "input": ["scout-model-8.6.0/FeatureExtractor/MobilenetV1/MobilenetV1/Conv2d_11_pointwise/Relu6", "scout-model-8.6.0/BoxPredictor_0/ClassPredictor/weights", "scout-model-8.6.0/BoxPredictor_0/ClassPredictor/biases"], "device": "/device:CPU:0", "attr": {"dilations": {"list": {"i": ["1", "1", "1", "1"]}}, "T": {"type": "DT_FLOAT"}, "strides": {"list": {"i": ["1", "1", "1", "1"]}}, "data_format": {"s": "TkhXQw=="}, "use_cudnn_on_gpu": {"b": true}, "explicit_paddings": {"list": {}}, "num_args": {"i": "1"}, "epsilon": {"f": 0.0}, "padding": {"s": "U0FNRQ=="}, "fused_ops": {"list": {"s": ["Qmlhc0FkZA=="]}}}}, {"name": "scout-model-8.6.0/BoxPredictor_0/BoxEncodingPredictor/BiasAdd", "op": "_FusedConv2D", "input": ["scout-model-8.6.0/FeatureExtractor/MobilenetV1/MobilenetV1/Conv2d_11_pointwise/Relu6", "scout-model-8.6.0/BoxPredictor_0/BoxEncodingPredictor/weights", "scout-model-8.6.0/BoxPredictor_0/BoxEncodingPredictor/biases"], "device": "/device:CPU:0", "attr": {"fused_ops": {"list": {"s": ["Qmlhc0FkZA=="]}}, "dilations": {"list": {"i": ["1", "1", "1", "1"]}}, "T": {"type": "DT_FLOAT"}, "data_format": {"s": "TkhXQw=="}, "strides": {"list": {"i": ["1", "1", "1", "1"]}}, "explicit_paddings": {"list": {}}, "use_cudnn_on_gpu": {"b": true}, "num_args": {"i": "1"}, "epsilon": {"f": 0.0}, "padding": {"s": "U0FNRQ=="}}}, {"name": "scout-model-8.6.0/BoxPredictor_0/Shape", "op": "Shape", "input": ["scout-model-8.6.0/FeatureExtractor/MobilenetV1/MobilenetV1/Conv2d_11_pointwise/Relu6"], "attr": {"T": {"type": "DT_FLOAT"}, "out_type": {"type": "DT_INT32"}}}, {"name": "scout-model-8.6.0/FeatureExtractor/MobilenetV1/MobilenetV1/Conv2d_12_depthwise/depthwise", "op": "FusedDepthwiseConv2dNative", "input": ["scout-model-8.6.0/FeatureExtractor/MobilenetV1/MobilenetV1/Conv2d_11_pointwise/Relu6", "scout-model-8.6.0/FeatureExtractor/MobilenetV1/MobilenetV1/Conv2d_12_depthwise/depthwise_weights", "scout-model-8.6.0/FeatureExtractor/MobilenetV1/MobilenetV1/Conv2d_12_depthwise/depthwise_bn_offset"], "attr": {"dilations": {"list": {"i": ["1", "1", "1", "1"]}}, "T": {"type": "DT_FLOAT"}, "strides": {"list": {"i": ["1", "2", "2", "1"]}}, "data_format": {"s": "TkhXQw=="}, "explicit_paddings": {"list": {}}, "num_args": {"i": "1"}, "padding": {"s": "U0FNRQ=="}, "fused_ops": {"list": {"s": ["Qmlhc0FkZA==", "UmVsdTY="]}}}}, {"name": "scout-model-8.6.0/BoxPredictor_0/strided_slice", "op": "StridedSlice", "input": ["scout-model-8.6.0/BoxPredictor_0/Shape", "scout-model-8.6.0/BoxPredictor_0/strided_slice/stack", "scout-model-8.6.0/BoxPredictor_0/strided_slice/stack_1", "scout-model-8.6.0/BoxPredictor_0/strided_slice/stack_2"], "attr": {"Index": {"type": "DT_INT32"}, "T": {"type": "DT_INT32"}, "shrink_axis_mask": {"i": "1"}, "begin_mask": {"i": "0"}, "ellipsis_mask": {"i": "0"}, "new_axis_mask": {"i": "0"}, "end_mask": {"i": "0"}}}, {"name": "scout-model-8.6.0/BoxPredictor_0/stack_1", "op": "Pack", "input": ["scout-model-8.6.0/BoxPredictor_0/strided_slice", "scout-model-8.6.0/BoxPredictor_0/stack_1/1", "scout-model-8.6.0/BoxPredictor_0/stack_1/2"], "attr": {"T": {"type": "DT_INT32"}, "axis": {"i": "0"}, "N": {"i": "3"}}}, {"name": "scout-model-8.6.0/BoxPredictor_0/stack", "op": "Pack", "input": ["scout-model-8.6.0/BoxPredictor_0/strided_slice", "scout-model-8.6.0/BoxPredictor_0/stack/1", "scout-model-8.6.0/BoxPredictor_0/stack/2", "scout-model-8.6.0/BoxPredictor_0/stack/3"], "attr": {"axis": {"i": "0"}, "N": {"i": "4"}, "T": {"type": "DT_INT32"}}}, {"name": "scout-model-8.6.0/BoxPredictor_0/Reshape_1", "op": "Reshape", "input": ["scout-model-8.6.0/BoxPredictor_0/ClassPredictor/BiasAdd", "scout-model-8.6.0/BoxPredictor_0/stack_1"], "attr": {"T": {"type": "DT_FLOAT"}, "Tshape": {"type": "DT_INT32"}}}, {"name": "scout-model-8.6.0/BoxPredictor_0/Reshape", "op": "Reshape", "input": ["scout-model-8.6.0/BoxPredictor_0/BoxEncodingPredictor/BiasAdd", "scout-model-8.6.0/BoxPredictor_0/stack"], "attr": {"T": {"type": "DT_FLOAT"}, "Tshape": {"type": "DT_INT32"}}}, {"name": "scout-model-8.6.0/FeatureExtractor/MobilenetV1/MobilenetV1/Conv2d_12_pointwise/Relu6", "op": "_FusedConv2D", "input": ["scout-model-8.6.0/FeatureExtractor/MobilenetV1/MobilenetV1/Conv2d_12_depthwise/depthwise", "scout-model-8.6.0/FeatureExtractor/MobilenetV1/MobilenetV1/Conv2d_12_pointwise/Conv2D_weights", "scout-model-8.6.0/FeatureExtractor/MobilenetV1/MobilenetV1/Conv2d_12_pointwise/Conv2D_bn_offset"], "device": "/device:CPU:0", "attr": {"dilations": {"list": {"i": ["1", "1", "1", "1"]}}, "T": {"type": "DT_FLOAT"}, "data_format": {"s": "TkhXQw=="}, "strides": {"list": {"i": ["1", "1", "1", "1"]}}, "explicit_paddings": {"list": {}}, "use_cudnn_on_gpu": {"b": true}, "num_args": {"i": "1"}, "epsilon": {"f": 0.0}, "padding": {"s": "U0FNRQ=="}, "fused_ops": {"list": {"s": ["Qmlhc0FkZA==", "UmVsdTY="]}}}}, {"name": "scout-model-8.6.0/Squeeze", "op": "Squeeze", "input": ["scout-model-8.6.0/BoxPredictor_0/Reshape"], "attr": {"squeeze_dims": {"list": {"i": ["2"]}}, "T": {"type": "DT_FLOAT"}}}, {"name": "scout-model-8.6.0/FeatureExtractor/MobilenetV1/MobilenetV1/Conv2d_13_depthwise/depthwise", "op": "FusedDepthwiseConv2dNative", "input": ["scout-model-8.6.0/FeatureExtractor/MobilenetV1/MobilenetV1/Conv2d_12_pointwise/Relu6", "scout-model-8.6.0/FeatureExtractor/MobilenetV1/MobilenetV1/Conv2d_13_depthwise/depthwise_weights", "scout-model-8.6.0/FeatureExtractor/MobilenetV1/MobilenetV1/Conv2d_13_depthwise/depthwise_bn_offset"], "attr": {"padding": {"s": "U0FNRQ=="}, "fused_ops": {"list": {"s": ["Qmlhc0FkZA==", "UmVsdTY="]}}, "dilations": {"list": {"i": ["1", "1", "1", "1"]}}, "T": {"type": "DT_FLOAT"}, "strides": {"list": {"i": ["1", "1", "1", "1"]}}, "data_format": {"s": "TkhXQw=="}, "explicit_paddings": {"list": {}}, "num_args": {"i": "1"}}}, {"name": "scout-model-8.6.0/FeatureExtractor/MobilenetV1/MobilenetV1/Conv2d_13_pointwise/Relu6", "op": "_FusedConv2D", "input": ["scout-model-8.6.0/FeatureExtractor/MobilenetV1/MobilenetV1/Conv2d_13_depthwise/depthwise", "scout-model-8.6.0/FeatureExtractor/MobilenetV1/MobilenetV1/Conv2d_13_pointwise/Conv2D_weights", "scout-model-8.6.0/FeatureExtractor/MobilenetV1/MobilenetV1/Conv2d_13_pointwise/Conv2D_bn_offset"], "device": "/device:CPU:0", "attr": {"explicit_paddings": {"list": {}}, "use_cudnn_on_gpu": {"b": true}, "num_args": {"i": "1"}, "epsilon": {"f": 0.0}, "padding": {"s": "U0FNRQ=="}, "fused_ops": {"list": {"s": ["Qmlhc0FkZA==", "UmVsdTY="]}}, "dilations": {"list": {"i": ["1", "1", "1", "1"]}}, "T": {"type": "DT_FLOAT"}, "data_format": {"s": "TkhXQw=="}, "strides": {"list": {"i": ["1", "1", "1", "1"]}}}}, {"name": "scout-model-8.6.0/BoxPredictor_1/ClassPredictor/BiasAdd", "op": "_FusedConv2D", "input": ["scout-model-8.6.0/FeatureExtractor/MobilenetV1/MobilenetV1/Conv2d_13_pointwise/Relu6", "scout-model-8.6.0/BoxPredictor_1/ClassPredictor/weights", "scout-model-8.6.0/BoxPredictor_1/ClassPredictor/biases"], "device": "/device:CPU:0", "attr": {"epsilon": {"f": 0.0}, "padding": {"s": "U0FNRQ=="}, "fused_ops": {"list": {"s": ["Qmlhc0FkZA=="]}}, "dilations": {"list": {"i": ["1", "1", "1", "1"]}}, "T": {"type": "DT_FLOAT"}, "strides": {"list": {"i": ["1", "1", "1", "1"]}}, "data_format": {"s": "TkhXQw=="}, "use_cudnn_on_gpu": {"b": true}, "explicit_paddings": {"list": {}}, "num_args": {"i": "1"}}}, {"name": "scout-model-8.6.0/BoxPredictor_1/BoxEncodingPredictor/BiasAdd", "op": "_FusedConv2D", "input": ["scout-model-8.6.0/FeatureExtractor/MobilenetV1/MobilenetV1/Conv2d_13_pointwise/Relu6", "scout-model-8.6.0/BoxPredictor_1/BoxEncodingPredictor/weights", "scout-model-8.6.0/BoxPredictor_1/BoxEncodingPredictor/biases"], "device": "/device:CPU:0", "attr": {"dilations": {"list": {"i": ["1", "1", "1", "1"]}}, "T": {"type": "DT_FLOAT"}, "strides": {"list": {"i": ["1", "1", "1", "1"]}}, "data_format": {"s": "TkhXQw=="}, "explicit_paddings": {"list": {}}, "use_cudnn_on_gpu": {"b": true}, "num_args": {"i": "1"}, "epsilon": {"f": 0.0}, "padding": {"s": "U0FNRQ=="}, "fused_ops": {"list": {"s": ["Qmlhc0FkZA=="]}}}}, {"name": "scout-model-8.6.0/BoxPredictor_1/Shape", "op": "Shape", "input": ["scout-model-8.6.0/FeatureExtractor/MobilenetV1/MobilenetV1/Conv2d_13_pointwise/Relu6"], "attr": {"T": {"type": "DT_FLOAT"}, "out_type": {"type": "DT_INT32"}}}, {"name": "scout-model-8.6.0/FeatureExtractor/MobilenetV1/Conv2d_13_pointwise_1_Conv2d_2_1x1_256/Relu6", "op": "_FusedConv2D", "input": ["scout-model-8.6.0/FeatureExtractor/MobilenetV1/MobilenetV1/Conv2d_13_pointwise/Relu6", "scout-model-8.6.0/FeatureExtractor/MobilenetV1/Conv2d_13_pointwise_1_Conv2d_2_1x1_256/Conv2D_weights", "scout-model-8.6.0/FeatureExtractor/MobilenetV1/Conv2d_13_pointwise_1_Conv2d_2_1x1_256/Conv2D_bn_offset"], "device": "/device:CPU:0", "attr": {"dilations": {"list": {"i": ["1", "1", "1", "1"]}}, "T": {"type": "DT_FLOAT"}, "strides": {"list": {"i": ["1", "1", "1", "1"]}}, "data_format": {"s": "TkhXQw=="}, "use_cudnn_on_gpu": {"b": true}, "explicit_paddings": {"list": {}}, "num_args": {"i": "1"}, "epsilon": {"f": 0.0}, "padding": {"s": "U0FNRQ=="}, "fused_ops": {"list": {"s": ["Qmlhc0FkZA==", "UmVsdTY="]}}}}, {"name": "scout-model-8.6.0/BoxPredictor_1/strided_slice", "op": "StridedSlice", "input": ["scout-model-8.6.0/BoxPredictor_1/Shape", "scout-model-8.6.0/BoxPredictor_1/strided_slice/stack", "scout-model-8.6.0/BoxPredictor_1/strided_slice/stack_1", "scout-model-8.6.0/BoxPredictor_1/strided_slice/stack_2"], "attr": {"shrink_axis_mask": {"i": "1"}, "ellipsis_mask": {"i": "0"}, "begin_mask": {"i": "0"}, "new_axis_mask": {"i": "0"}, "end_mask": {"i": "0"}, "Index": {"type": "DT_INT32"}, "T": {"type": "DT_INT32"}}}, {"name": "scout-model-8.6.0/FeatureExtractor/MobilenetV1/Shape", "op": "Shape", "input": ["scout-model-8.6.0/FeatureExtractor/MobilenetV1/Conv2d_13_pointwise_1_Conv2d_2_1x1_256/Relu6"], "attr": {"T": {"type": "DT_FLOAT"}, "out_type": {"type": "DT_INT32"}}}, {"name": "scout-model-8.6.0/BoxPredictor_1/stack_1", "op": "Pack", "input": ["scout-model-8.6.0/BoxPredictor_1/strided_slice", "scout-model-8.6.0/BoxPredictor_1/stack_1/1", "scout-model-8.6.0/BoxPredictor_1/stack_1/2"], "attr": {"T": {"type": "DT_INT32"}, "axis": {"i": "0"}, "N": {"i": "3"}}}, {"name": "scout-model-8.6.0/BoxPredictor_1/stack", "op": "Pack", "input": ["scout-model-8.6.0/BoxPredictor_1/strided_slice", "scout-model-8.6.0/BoxPredictor_1/stack/1", "scout-model-8.6.0/BoxPredictor_1/stack/2", "scout-model-8.6.0/BoxPredictor_1/stack/3"], "attr": {"T": {"type": "DT_INT32"}, "axis": {"i": "0"}, "N": {"i": "4"}}}, {"name": "scout-model-8.6.0/FeatureExtractor/MobilenetV1/strided_slice", "op": "StridedSlice", "input": ["scout-model-8.6.0/FeatureExtractor/MobilenetV1/Shape", "scout-model-8.6.0/FeatureExtractor/MobilenetV1/strided_slice/stack", "scout-model-8.6.0/FeatureExtractor/MobilenetV1/strided_slice/stack_1", "scout-model-8.6.0/FeatureExtractor/MobilenetV1/strided_slice/stack_2"], "attr": {"Index": {"type": "DT_INT32"}, "T": {"type": "DT_INT32"}, "shrink_axis_mask": {"i": "1"}, "ellipsis_mask": {"i": "0"}, "begin_mask": {"i": "0"}, "new_axis_mask": {"i": "0"}, "end_mask": {"i": "0"}}}, {"name": "scout-model-8.6.0/BoxPredictor_1/Reshape_1", "op": "Reshape", "input": ["scout-model-8.6.0/BoxPredictor_1/ClassPredictor/BiasAdd", "scout-model-8.6.0/BoxPredictor_1/stack_1"], "attr": {"T": {"type": "DT_FLOAT"}, "Tshape": {"type": "DT_INT32"}}}, {"name": "scout-model-8.6.0/BoxPredictor_1/Reshape", "op": "Reshape", "input": ["scout-model-8.6.0/BoxPredictor_1/BoxEncodingPredictor/BiasAdd", "scout-model-8.6.0/BoxPredictor_1/stack"], "attr": {"T": {"type": "DT_FLOAT"}, "Tshape": {"type": "DT_INT32"}}}, {"name": "scout-model-8.6.0/FeatureExtractor/MobilenetV1/zeros/packed", "op": "Pack", "input": ["scout-model-8.6.0/FeatureExtractor/MobilenetV1/strided_slice", "scout-model-8.6.0/FeatureExtractor/MobilenetV1/zeros/packed/1", "scout-model-8.6.0/FeatureExtractor/MobilenetV1/zeros/packed/2", "scout-model-8.6.0/FeatureExtractor/MobilenetV1/zeros/packed/3"], "attr": {"T": {"type": "DT_INT32"}, "axis": {"i": "0"}, "N": {"i": "4"}}}, {"name": "scout-model-8.6.0/FeatureExtractor/MobilenetV1/zeros_1/packed", "op": "Pack", "input": ["scout-model-8.6.0/FeatureExtractor/MobilenetV1/strided_slice", "scout-model-8.6.0/FeatureExtractor/MobilenetV1/zeros_1/packed/1", "scout-model-8.6.0/FeatureExtractor/MobilenetV1/zeros_1/packed/2", "scout-model-8.6.0/FeatureExtractor/MobilenetV1/zeros_1/packed/3"], "attr": {"T": {"type": "DT_INT32"}, "axis": {"i": "0"}, "N": {"i": "4"}}}, {"name": "scout-model-8.6.0/Squeeze_1", "op": "Squeeze", "input": ["scout-model-8.6.0/BoxPredictor_1/Reshape"], "attr": {"squeeze_dims": {"list": {"i": ["2"]}}, "T": {"type": "DT_FLOAT"}}}, {"name": "scout-model-8.6.0/FeatureExtractor/MobilenetV1/zeros", "op": "Fill", "input": ["scout-model-8.6.0/FeatureExtractor/MobilenetV1/zeros/packed", "scout-model-8.6.0/FeatureExtractor/MobilenetV1/zeros/Const"], "attr": {"T": {"type": "DT_FLOAT"}, "index_type": {"type": "DT_INT32"}}}, {"name": "scout-model-8.6.0/FeatureExtractor/MobilenetV1/zeros_1", "op": "Fill", "input": ["scout-model-8.6.0/FeatureExtractor/MobilenetV1/zeros_1/packed", "scout-model-8.6.0/FeatureExtractor/MobilenetV1/zeros_1/Const"], "attr": {"T": {"type": "DT_FLOAT"}, "index_type": {"type": "DT_INT32"}}}, {"name": "scout-model-8.6.0/FeatureExtractor/MobilenetV1/concat", "op": "ConcatV2", "input": ["scout-model-8.6.0/FeatureExtractor/MobilenetV1/Conv2d_13_pointwise_1_Conv2d_2_1x1_256/Relu6", "scout-model-8.6.0/FeatureExtractor/MobilenetV1/zeros", "scout-model-8.6.0/FeatureExtractor/MobilenetV1/concat/axis"], "attr": {"N": {"i": "2"}, "Tidx": {"type": "DT_INT32"}, "T": {"type": "DT_FLOAT"}}}, {"name": "scout-model-8.6.0/FeatureExtractor/MobilenetV1/concat_1", "op": "ConcatV2", "input": ["scout-model-8.6.0/FeatureExtractor/MobilenetV1/concat", "scout-model-8.6.0/FeatureExtractor/MobilenetV1/zeros_1", "scout-model-8.6.0/FeatureExtractor/MobilenetV1/concat_1/axis"], "attr": {"Tidx": {"type": "DT_INT32"}, "T": {"type": "DT_FLOAT"}, "N": {"i": "2"}}}, {"name": "scout-model-8.6.0/FeatureExtractor/MobilenetV1/Conv2d_13_pointwise_2_Conv2d_2_3x3_s2_512/Relu6", "op": "_FusedConv2D", "input": ["scout-model-8.6.0/FeatureExtractor/MobilenetV1/concat_1", "scout-model-8.6.0/FeatureExtractor/MobilenetV1/Conv2d_13_pointwise_2_Conv2d_2_3x3_s2_512/Conv2D_weights", "scout-model-8.6.0/FeatureExtractor/MobilenetV1/Conv2d_13_pointwise_2_Conv2d_2_3x3_s2_512/Conv2D_bn_offset"], "device": "/device:CPU:0", "attr": {"strides": {"list": {"i": ["1", "2", "2", "1"]}}, "data_format": {"s": "TkhXQw=="}, "explicit_paddings": {"list": {}}, "use_cudnn_on_gpu": {"b": true}, "num_args": {"i": "1"}, "epsilon": {"f": 0.0}, "padding": {"s": "U0FNRQ=="}, "fused_ops": {"list": {"s": ["Qmlhc0FkZA==", "UmVsdTY="]}}, "dilations": {"list": {"i": ["1", "1", "1", "1"]}}, "T": {"type": "DT_FLOAT"}}}, {"name": "scout-model-8.6.0/BoxPredictor_2/ClassPredictor/BiasAdd", "op": "_FusedConv2D", "input": ["scout-model-8.6.0/FeatureExtractor/MobilenetV1/Conv2d_13_pointwise_2_Conv2d_2_3x3_s2_512/Relu6", "scout-model-8.6.0/BoxPredictor_2/ClassPredictor/weights", "scout-model-8.6.0/BoxPredictor_2/ClassPredictor/biases"], "device": "/device:CPU:0", "attr": {"dilations": {"list": {"i": ["1", "1", "1", "1"]}}, "T": {"type": "DT_FLOAT"}, "data_format": {"s": "TkhXQw=="}, "strides": {"list": {"i": ["1", "1", "1", "1"]}}, "use_cudnn_on_gpu": {"b": true}, "explicit_paddings": {"list": {}}, "num_args": {"i": "1"}, "epsilon": {"f": 0.0}, "padding": {"s": "U0FNRQ=="}, "fused_ops": {"list": {"s": ["Qmlhc0FkZA=="]}}}}, {"name": "scout-model-8.6.0/BoxPredictor_2/BoxEncodingPredictor/BiasAdd", "op": "_FusedConv2D", "input": ["scout-model-8.6.0/FeatureExtractor/MobilenetV1/Conv2d_13_pointwise_2_Conv2d_2_3x3_s2_512/Relu6", "scout-model-8.6.0/BoxPredictor_2/BoxEncodingPredictor/weights", "scout-model-8.6.0/BoxPredictor_2/BoxEncodingPredictor/biases"], "device": "/device:CPU:0", "attr": {"epsilon": {"f": 0.0}, "padding": {"s": "U0FNRQ=="}, "fused_ops": {"list": {"s": ["Qmlhc0FkZA=="]}}, "dilations": {"list": {"i": ["1", "1", "1", "1"]}}, "T": {"type": "DT_FLOAT"}, "data_format": {"s": "TkhXQw=="}, "strides": {"list": {"i": ["1", "1", "1", "1"]}}, "use_cudnn_on_gpu": {"b": true}, "explicit_paddings": {"list": {}}, "num_args": {"i": "1"}}}, {"name": "scout-model-8.6.0/BoxPredictor_2/Shape", "op": "Shape", "input": ["scout-model-8.6.0/FeatureExtractor/MobilenetV1/Conv2d_13_pointwise_2_Conv2d_2_3x3_s2_512/Relu6"], "attr": {"T": {"type": "DT_FLOAT"}, "out_type": {"type": "DT_INT32"}}}, {"name": "scout-model-8.6.0/FeatureExtractor/MobilenetV1/Conv2d_13_pointwise_1_Conv2d_3_1x1_128/Relu6", "op": "_FusedConv2D", "input": ["scout-model-8.6.0/FeatureExtractor/MobilenetV1/Conv2d_13_pointwise_2_Conv2d_2_3x3_s2_512/Relu6", "scout-model-8.6.0/FeatureExtractor/MobilenetV1/Conv2d_13_pointwise_1_Conv2d_3_1x1_128/Conv2D_weights", "scout-model-8.6.0/FeatureExtractor/MobilenetV1/Conv2d_13_pointwise_1_Conv2d_3_1x1_128/Conv2D_bn_offset"], "device": "/device:CPU:0", "attr": {"num_args": {"i": "1"}, "epsilon": {"f": 0.0}, "padding": {"s": "U0FNRQ=="}, "fused_ops": {"list": {"s": ["Qmlhc0FkZA==", "UmVsdTY="]}}, "dilations": {"list": {"i": ["1", "1", "1", "1"]}}, "T": {"type": "DT_FLOAT"}, "strides": {"list": {"i": ["1", "1", "1", "1"]}}, "data_format": {"s": "TkhXQw=="}, "use_cudnn_on_gpu": {"b": true}, "explicit_paddings": {"list": {}}}}, {"name": "scout-model-8.6.0/BoxPredictor_2/strided_slice", "op": "StridedSlice", "input": ["scout-model-8.6.0/BoxPredictor_2/Shape", "scout-model-8.6.0/BoxPredictor_2/strided_slice/stack", "scout-model-8.6.0/BoxPredictor_2/strided_slice/stack_1", "scout-model-8.6.0/BoxPredictor_2/strided_slice/stack_2"], "attr": {"shrink_axis_mask": {"i": "1"}, "ellipsis_mask": {"i": "0"}, "begin_mask": {"i": "0"}, "new_axis_mask": {"i": "0"}, "end_mask": {"i": "0"}, "T": {"type": "DT_INT32"}, "Index": {"type": "DT_INT32"}}}, {"name": "scout-model-8.6.0/FeatureExtractor/MobilenetV1/Shape_1", "op": "Shape", "input": ["scout-model-8.6.0/FeatureExtractor/MobilenetV1/Conv2d_13_pointwise_1_Conv2d_3_1x1_128/Relu6"], "attr": {"T": {"type": "DT_FLOAT"}, "out_type": {"type": "DT_INT32"}}}, {"name": "scout-model-8.6.0/BoxPredictor_2/stack_1", "op": "Pack", "input": ["scout-model-8.6.0/BoxPredictor_2/strided_slice", "scout-model-8.6.0/BoxPredictor_2/stack_1/1", "scout-model-8.6.0/BoxPredictor_2/stack_1/2"], "attr": {"N": {"i": "3"}, "T": {"type": "DT_INT32"}, "axis": {"i": "0"}}}, {"name": "scout-model-8.6.0/BoxPredictor_2/stack", "op": "Pack", "input": ["scout-model-8.6.0/BoxPredictor_2/strided_slice", "scout-model-8.6.0/BoxPredictor_2/stack/1", "scout-model-8.6.0/BoxPredictor_2/stack/2", "scout-model-8.6.0/BoxPredictor_2/stack/3"], "attr": {"T": {"type": "DT_INT32"}, "axis": {"i": "0"}, "N": {"i": "4"}}}, {"name": "scout-model-8.6.0/FeatureExtractor/MobilenetV1/strided_slice_1", "op": "StridedSlice", "input": ["scout-model-8.6.0/FeatureExtractor/MobilenetV1/Shape_1", "scout-model-8.6.0/FeatureExtractor/MobilenetV1/strided_slice_1/stack", "scout-model-8.6.0/FeatureExtractor/MobilenetV1/strided_slice_1/stack_1", "scout-model-8.6.0/FeatureExtractor/MobilenetV1/strided_slice_1/stack_2"], "attr": {"Index": {"type": "DT_INT32"}, "T": {"type": "DT_INT32"}, "shrink_axis_mask": {"i": "1"}, "ellipsis_mask": {"i": "0"}, "begin_mask": {"i": "0"}, "new_axis_mask": {"i": "0"}, "end_mask": {"i": "0"}}}, {"name": "scout-model-8.6.0/BoxPredictor_2/Reshape_1", "op": "Reshape", "input": ["scout-model-8.6.0/BoxPredictor_2/ClassPredictor/BiasAdd", "scout-model-8.6.0/BoxPredictor_2/stack_1"], "attr": {"T": {"type": "DT_FLOAT"}, "Tshape": {"type": "DT_INT32"}}}, {"name": "scout-model-8.6.0/BoxPredictor_2/Reshape", "op": "Reshape", "input": ["scout-model-8.6.0/BoxPredictor_2/BoxEncodingPredictor/BiasAdd", "scout-model-8.6.0/BoxPredictor_2/stack"], "attr": {"T": {"type": "DT_FLOAT"}, "Tshape": {"type": "DT_INT32"}}}, {"name": "scout-model-8.6.0/FeatureExtractor/MobilenetV1/zeros_2/packed", "op": "Pack", "input": ["scout-model-8.6.0/FeatureExtractor/MobilenetV1/strided_slice_1", "scout-model-8.6.0/FeatureExtractor/MobilenetV1/zeros_2/packed/1", "scout-model-8.6.0/FeatureExtractor/MobilenetV1/zeros_2/packed/2", "scout-model-8.6.0/FeatureExtractor/MobilenetV1/zeros_2/packed/3"], "attr": {"T": {"type": "DT_INT32"}, "axis": {"i": "0"}, "N": {"i": "4"}}}, {"name": "scout-model-8.6.0/FeatureExtractor/MobilenetV1/zeros_3/packed", "op": "Pack", "input": ["scout-model-8.6.0/FeatureExtractor/MobilenetV1/strided_slice_1", "scout-model-8.6.0/FeatureExtractor/MobilenetV1/zeros_3/packed/1", "scout-model-8.6.0/FeatureExtractor/MobilenetV1/zeros_3/packed/2", "scout-model-8.6.0/FeatureExtractor/MobilenetV1/zeros_3/packed/3"], "attr": {"T": {"type": "DT_INT32"}, "axis": {"i": "0"}, "N": {"i": "4"}}}, {"name": "scout-model-8.6.0/Squeeze_2", "op": "Squeeze", "input": ["scout-model-8.6.0/BoxPredictor_2/Reshape"], "attr": {"T": {"type": "DT_FLOAT"}, "squeeze_dims": {"list": {"i": ["2"]}}}}, {"name": "scout-model-8.6.0/FeatureExtractor/MobilenetV1/zeros_2", "op": "Fill", "input": ["scout-model-8.6.0/FeatureExtractor/MobilenetV1/zeros_2/packed", "scout-model-8.6.0/FeatureExtractor/MobilenetV1/zeros_2/Const"], "attr": {"T": {"type": "DT_FLOAT"}, "index_type": {"type": "DT_INT32"}}}, {"name": "scout-model-8.6.0/FeatureExtractor/MobilenetV1/zeros_3", "op": "Fill", "input": ["scout-model-8.6.0/FeatureExtractor/MobilenetV1/zeros_3/packed", "scout-model-8.6.0/FeatureExtractor/MobilenetV1/zeros_3/Const"], "attr": {"T": {"type": "DT_FLOAT"}, "index_type": {"type": "DT_INT32"}}}, {"name": "scout-model-8.6.0/FeatureExtractor/MobilenetV1/concat_2", "op": "ConcatV2", "input": ["scout-model-8.6.0/FeatureExtractor/MobilenetV1/Conv2d_13_pointwise_1_Conv2d_3_1x1_128/Relu6", "scout-model-8.6.0/FeatureExtractor/MobilenetV1/zeros_2", "scout-model-8.6.0/FeatureExtractor/MobilenetV1/concat_2/axis"], "attr": {"N": {"i": "2"}, "Tidx": {"type": "DT_INT32"}, "T": {"type": "DT_FLOAT"}}}, {"name": "scout-model-8.6.0/FeatureExtractor/MobilenetV1/concat_3", "op": "ConcatV2", "input": ["scout-model-8.6.0/FeatureExtractor/MobilenetV1/concat_2", "scout-model-8.6.0/FeatureExtractor/MobilenetV1/zeros_3", "scout-model-8.6.0/FeatureExtractor/MobilenetV1/concat_3/axis"], "attr": {"N": {"i": "2"}, "Tidx": {"type": "DT_INT32"}, "T": {"type": "DT_FLOAT"}}}, {"name": "scout-model-8.6.0/FeatureExtractor/MobilenetV1/Conv2d_13_pointwise_2_Conv2d_3_3x3_s2_256/Relu6", "op": "_FusedConv2D", "input": ["scout-model-8.6.0/FeatureExtractor/MobilenetV1/concat_3", "scout-model-8.6.0/FeatureExtractor/MobilenetV1/Conv2d_13_pointwise_2_Conv2d_3_3x3_s2_256/Conv2D_weights", "scout-model-8.6.0/FeatureExtractor/MobilenetV1/Conv2d_13_pointwise_2_Conv2d_3_3x3_s2_256/Conv2D_bn_offset"], "device": "/device:CPU:0", "attr": {"T": {"type": "DT_FLOAT"}, "strides": {"list": {"i": ["1", "2", "2", "1"]}}, "data_format": {"s": "TkhXQw=="}, "use_cudnn_on_gpu": {"b": true}, "explicit_paddings": {"list": {}}, "num_args": {"i": "1"}, "epsilon": {"f": 0.0}, "padding": {"s": "U0FNRQ=="}, "fused_ops": {"list": {"s": ["Qmlhc0FkZA==", "UmVsdTY="]}}, "dilations": {"list": {"i": ["1", "1", "1", "1"]}}}}, {"name": "scout-model-8.6.0/BoxPredictor_3/ClassPredictor/BiasAdd", "op": "_FusedConv2D", "input": ["scout-model-8.6.0/FeatureExtractor/MobilenetV1/Conv2d_13_pointwise_2_Conv2d_3_3x3_s2_256/Relu6", "scout-model-8.6.0/BoxPredictor_3/ClassPredictor/weights", "scout-model-8.6.0/BoxPredictor_3/ClassPredictor/biases"], "device": "/device:CPU:0", "attr": {"dilations": {"list": {"i": ["1", "1", "1", "1"]}}, "T": {"type": "DT_FLOAT"}, "strides": {"list": {"i": ["1", "1", "1", "1"]}}, "data_format": {"s": "TkhXQw=="}, "explicit_paddings": {"list": {}}, "use_cudnn_on_gpu": {"b": true}, "num_args": {"i": "1"}, "epsilon": {"f": 0.0}, "padding": {"s": "U0FNRQ=="}, "fused_ops": {"list": {"s": ["Qmlhc0FkZA=="]}}}}, {"name": "scout-model-8.6.0/BoxPredictor_3/BoxEncodingPredictor/BiasAdd", "op": "_FusedConv2D", "input": ["scout-model-8.6.0/FeatureExtractor/MobilenetV1/Conv2d_13_pointwise_2_Conv2d_3_3x3_s2_256/Relu6", "scout-model-8.6.0/BoxPredictor_3/BoxEncodingPredictor/weights", "scout-model-8.6.0/BoxPredictor_3/BoxEncodingPredictor/biases"], "device": "/device:CPU:0", "attr": {"data_format": {"s": "TkhXQw=="}, "strides": {"list": {"i": ["1", "1", "1", "1"]}}, "explicit_paddings": {"list": {}}, "use_cudnn_on_gpu": {"b": true}, "num_args": {"i": "1"}, "epsilon": {"f": 0.0}, "padding": {"s": "U0FNRQ=="}, "fused_ops": {"list": {"s": ["Qmlhc0FkZA=="]}}, "dilations": {"list": {"i": ["1", "1", "1", "1"]}}, "T": {"type": "DT_FLOAT"}}}, {"name": "scout-model-8.6.0/BoxPredictor_3/Shape", "op": "Shape", "input": ["scout-model-8.6.0/FeatureExtractor/MobilenetV1/Conv2d_13_pointwise_2_Conv2d_3_3x3_s2_256/Relu6"], "attr": {"T": {"type": "DT_FLOAT"}, "out_type": {"type": "DT_INT32"}}}, {"name": "scout-model-8.6.0/FeatureExtractor/MobilenetV1/Conv2d_13_pointwise_1_Conv2d_4_1x1_128/Relu6", "op": "_FusedConv2D", "input": ["scout-model-8.6.0/FeatureExtractor/MobilenetV1/Conv2d_13_pointwise_2_Conv2d_3_3x3_s2_256/Relu6", "scout-model-8.6.0/FeatureExtractor/MobilenetV1/Conv2d_13_pointwise_1_Conv2d_4_1x1_128/Conv2D_weights", "scout-model-8.6.0/FeatureExtractor/MobilenetV1/Conv2d_13_pointwise_1_Conv2d_4_1x1_128/Conv2D_bn_offset"], "device": "/device:CPU:0", "attr": {"dilations": {"list": {"i": ["1", "1", "1", "1"]}}, "T": {"type": "DT_FLOAT"}, "data_format": {"s": "TkhXQw=="}, "strides": {"list": {"i": ["1", "1", "1", "1"]}}, "use_cudnn_on_gpu": {"b": true}, "explicit_paddings": {"list": {}}, "num_args": {"i": "1"}, "epsilon": {"f": 0.0}, "padding": {"s": "U0FNRQ=="}, "fused_ops": {"list": {"s": ["Qmlhc0FkZA==", "UmVsdTY="]}}}}, {"name": "scout-model-8.6.0/BoxPredictor_3/strided_slice", "op": "StridedSlice", "input": ["scout-model-8.6.0/BoxPredictor_3/Shape", "scout-model-8.6.0/BoxPredictor_3/strided_slice/stack", "scout-model-8.6.0/BoxPredictor_3/strided_slice/stack_1", "scout-model-8.6.0/BoxPredictor_3/strided_slice/stack_2"], "attr": {"T": {"type": "DT_INT32"}, "Index": {"type": "DT_INT32"}, "shrink_axis_mask": {"i": "1"}, "ellipsis_mask": {"i": "0"}, "begin_mask": {"i": "0"}, "new_axis_mask": {"i": "0"}, "end_mask": {"i": "0"}}}, {"name": "scout-model-8.6.0/FeatureExtractor/MobilenetV1/Shape_2", "op": "Shape", "input": ["scout-model-8.6.0/FeatureExtractor/MobilenetV1/Conv2d_13_pointwise_1_Conv2d_4_1x1_128/Relu6"], "attr": {"T": {"type": "DT_FLOAT"}, "out_type": {"type": "DT_INT32"}}}, {"name": "scout-model-8.6.0/BoxPredictor_3/stack_1", "op": "Pack", "input": ["scout-model-8.6.0/BoxPredictor_3/strided_slice", "scout-model-8.6.0/BoxPredictor_3/stack_1/1", "scout-model-8.6.0/BoxPredictor_3/stack_1/2"], "attr": {"T": {"type": "DT_INT32"}, "axis": {"i": "0"}, "N": {"i": "3"}}}, {"name": "scout-model-8.6.0/BoxPredictor_3/stack", "op": "Pack", "input": ["scout-model-8.6.0/BoxPredictor_3/strided_slice", "scout-model-8.6.0/BoxPredictor_3/stack/1", "scout-model-8.6.0/BoxPredictor_3/stack/2", "scout-model-8.6.0/BoxPredictor_3/stack/3"], "attr": {"T": {"type": "DT_INT32"}, "axis": {"i": "0"}, "N": {"i": "4"}}}, {"name": "scout-model-8.6.0/FeatureExtractor/MobilenetV1/strided_slice_2", "op": "StridedSlice", "input": ["scout-model-8.6.0/FeatureExtractor/MobilenetV1/Shape_2", "scout-model-8.6.0/FeatureExtractor/MobilenetV1/strided_slice_2/stack", "scout-model-8.6.0/FeatureExtractor/MobilenetV1/strided_slice_2/stack_1", "scout-model-8.6.0/FeatureExtractor/MobilenetV1/strided_slice_2/stack_2"], "attr": {"end_mask": {"i": "0"}, "Index": {"type": "DT_INT32"}, "T": {"type": "DT_INT32"}, "shrink_axis_mask": {"i": "1"}, "begin_mask": {"i": "0"}, "ellipsis_mask": {"i": "0"}, "new_axis_mask": {"i": "0"}}}, {"name": "scout-model-8.6.0/BoxPredictor_3/Reshape_1", "op": "Reshape", "input": ["scout-model-8.6.0/BoxPredictor_3/ClassPredictor/BiasAdd", "scout-model-8.6.0/BoxPredictor_3/stack_1"], "attr": {"T": {"type": "DT_FLOAT"}, "Tshape": {"type": "DT_INT32"}}}, {"name": "scout-model-8.6.0/BoxPredictor_3/Reshape", "op": "Reshape", "input": ["scout-model-8.6.0/BoxPredictor_3/BoxEncodingPredictor/BiasAdd", "scout-model-8.6.0/BoxPredictor_3/stack"], "attr": {"T": {"type": "DT_FLOAT"}, "Tshape": {"type": "DT_INT32"}}}, {"name": "scout-model-8.6.0/FeatureExtractor/MobilenetV1/zeros_4/packed", "op": "Pack", "input": ["scout-model-8.6.0/FeatureExtractor/MobilenetV1/strided_slice_2", "scout-model-8.6.0/FeatureExtractor/MobilenetV1/zeros_4/packed/1", "scout-model-8.6.0/FeatureExtractor/MobilenetV1/zeros_4/packed/2", "scout-model-8.6.0/FeatureExtractor/MobilenetV1/zeros_4/packed/3"], "attr": {"axis": {"i": "0"}, "N": {"i": "4"}, "T": {"type": "DT_INT32"}}}, {"name": "scout-model-8.6.0/FeatureExtractor/MobilenetV1/zeros_5/packed", "op": "Pack", "input": ["scout-model-8.6.0/FeatureExtractor/MobilenetV1/strided_slice_2", "scout-model-8.6.0/FeatureExtractor/MobilenetV1/zeros_5/packed/1", "scout-model-8.6.0/FeatureExtractor/MobilenetV1/zeros_5/packed/2", "scout-model-8.6.0/FeatureExtractor/MobilenetV1/zeros_5/packed/3"], "attr": {"T": {"type": "DT_INT32"}, "axis": {"i": "0"}, "N": {"i": "4"}}}, {"name": "scout-model-8.6.0/Squeeze_3", "op": "Squeeze", "input": ["scout-model-8.6.0/BoxPredictor_3/Reshape"], "attr": {"squeeze_dims": {"list": {"i": ["2"]}}, "T": {"type": "DT_FLOAT"}}}, {"name": "scout-model-8.6.0/FeatureExtractor/MobilenetV1/zeros_4", "op": "Fill", "input": ["scout-model-8.6.0/FeatureExtractor/MobilenetV1/zeros_4/packed", "scout-model-8.6.0/FeatureExtractor/MobilenetV1/zeros_4/Const"], "attr": {"T": {"type": "DT_FLOAT"}, "index_type": {"type": "DT_INT32"}}}, {"name": "scout-model-8.6.0/FeatureExtractor/MobilenetV1/zeros_5", "op": "Fill", "input": ["scout-model-8.6.0/FeatureExtractor/MobilenetV1/zeros_5/packed", "scout-model-8.6.0/FeatureExtractor/MobilenetV1/zeros_5/Const"], "attr": {"T": {"type": "DT_FLOAT"}, "index_type": {"type": "DT_INT32"}}}, {"name": "scout-model-8.6.0/FeatureExtractor/MobilenetV1/concat_4", "op": "ConcatV2", "input": ["scout-model-8.6.0/FeatureExtractor/MobilenetV1/Conv2d_13_pointwise_1_Conv2d_4_1x1_128/Relu6", "scout-model-8.6.0/FeatureExtractor/MobilenetV1/zeros_4", "scout-model-8.6.0/FeatureExtractor/MobilenetV1/concat_4/axis"], "attr": {"Tidx": {"type": "DT_INT32"}, "T": {"type": "DT_FLOAT"}, "N": {"i": "2"}}}, {"name": "scout-model-8.6.0/FeatureExtractor/MobilenetV1/concat_5", "op": "ConcatV2", "input": ["scout-model-8.6.0/FeatureExtractor/MobilenetV1/concat_4", "scout-model-8.6.0/FeatureExtractor/MobilenetV1/zeros_5", "scout-model-8.6.0/FeatureExtractor/MobilenetV1/concat_5/axis"], "attr": {"T": {"type": "DT_FLOAT"}, "N": {"i": "2"}, "Tidx": {"type": "DT_INT32"}}}, {"name": "scout-model-8.6.0/FeatureExtractor/MobilenetV1/Conv2d_13_pointwise_2_Conv2d_4_3x3_s2_256/Relu6", "op": "_FusedConv2D", "input": ["scout-model-8.6.0/FeatureExtractor/MobilenetV1/concat_5", "scout-model-8.6.0/FeatureExtractor/MobilenetV1/Conv2d_13_pointwise_2_Conv2d_4_3x3_s2_256/Conv2D_weights", "scout-model-8.6.0/FeatureExtractor/MobilenetV1/Conv2d_13_pointwise_2_Conv2d_4_3x3_s2_256/Conv2D_bn_offset"], "device": "/device:CPU:0", "attr": {"dilations": {"list": {"i": ["1", "1", "1", "1"]}}, "T": {"type": "DT_FLOAT"}, "data_format": {"s": "TkhXQw=="}, "strides": {"list": {"i": ["1", "2", "2", "1"]}}, "use_cudnn_on_gpu": {"b": true}, "explicit_paddings": {"list": {}}, "num_args": {"i": "1"}, "epsilon": {"f": 0.0}, "padding": {"s": "U0FNRQ=="}, "fused_ops": {"list": {"s": ["Qmlhc0FkZA==", "UmVsdTY="]}}}}, {"name": "scout-model-8.6.0/BoxPredictor_4/ClassPredictor/BiasAdd", "op": "_FusedConv2D", "input": ["scout-model-8.6.0/FeatureExtractor/MobilenetV1/Conv2d_13_pointwise_2_Conv2d_4_3x3_s2_256/Relu6", "scout-model-8.6.0/BoxPredictor_4/ClassPredictor/weights", "scout-model-8.6.0/BoxPredictor_4/ClassPredictor/biases"], "device": "/device:CPU:0", "attr": {"T": {"type": "DT_FLOAT"}, "data_format": {"s": "TkhXQw=="}, "strides": {"list": {"i": ["1", "1", "1", "1"]}}, "explicit_paddings": {"list": {}}, "use_cudnn_on_gpu": {"b": true}, "num_args": {"i": "1"}, "epsilon": {"f": 0.0}, "padding": {"s": "U0FNRQ=="}, "fused_ops": {"list": {"s": ["Qmlhc0FkZA=="]}}, "dilations": {"list": {"i": ["1", "1", "1", "1"]}}}}, {"name": "scout-model-8.6.0/BoxPredictor_4/BoxEncodingPredictor/BiasAdd", "op": "_FusedConv2D", "input": ["scout-model-8.6.0/FeatureExtractor/MobilenetV1/Conv2d_13_pointwise_2_Conv2d_4_3x3_s2_256/Relu6", "scout-model-8.6.0/BoxPredictor_4/BoxEncodingPredictor/weights", "scout-model-8.6.0/BoxPredictor_4/BoxEncodingPredictor/biases"], "device": "/device:CPU:0", "attr": {"strides": {"list": {"i": ["1", "1", "1", "1"]}}, "data_format": {"s": "TkhXQw=="}, "use_cudnn_on_gpu": {"b": true}, "explicit_paddings": {"list": {}}, "num_args": {"i": "1"}, "epsilon": {"f": 0.0}, "padding": {"s": "U0FNRQ=="}, "fused_ops": {"list": {"s": ["Qmlhc0FkZA=="]}}, "dilations": {"list": {"i": ["1", "1", "1", "1"]}}, "T": {"type": "DT_FLOAT"}}}, {"name": "scout-model-8.6.0/BoxPredictor_4/Shape", "op": "Shape", "input": ["scout-model-8.6.0/FeatureExtractor/MobilenetV1/Conv2d_13_pointwise_2_Conv2d_4_3x3_s2_256/Relu6"], "attr": {"T": {"type": "DT_FLOAT"}, "out_type": {"type": "DT_INT32"}}}, {"name": "scout-model-8.6.0/FeatureExtractor/MobilenetV1/Conv2d_13_pointwise_1_Conv2d_5_1x1_64/Relu6", "op": "_FusedConv2D", "input": ["scout-model-8.6.0/FeatureExtractor/MobilenetV1/Conv2d_13_pointwise_2_Conv2d_4_3x3_s2_256/Relu6", "scout-model-8.6.0/FeatureExtractor/MobilenetV1/Conv2d_13_pointwise_1_Conv2d_5_1x1_64/Conv2D_weights", "scout-model-8.6.0/FeatureExtractor/MobilenetV1/Conv2d_13_pointwise_1_Conv2d_5_1x1_64/Conv2D_bn_offset"], "device": "/device:CPU:0", "attr": {"dilations": {"list": {"i": ["1", "1", "1", "1"]}}, "T": {"type": "DT_FLOAT"}, "strides": {"list": {"i": ["1", "1", "1", "1"]}}, "data_format": {"s": "TkhXQw=="}, "explicit_paddings": {"list": {}}, "use_cudnn_on_gpu": {"b": true}, "num_args": {"i": "1"}, "epsilon": {"f": 0.0}, "padding": {"s": "U0FNRQ=="}, "fused_ops": {"list": {"s": ["Qmlhc0FkZA==", "UmVsdTY="]}}}}, {"name": "scout-model-8.6.0/BoxPredictor_4/strided_slice", "op": "StridedSlice", "input": ["scout-model-8.6.0/BoxPredictor_4/Shape", "scout-model-8.6.0/BoxPredictor_4/strided_slice/stack", "scout-model-8.6.0/BoxPredictor_4/strided_slice/stack_1", "scout-model-8.6.0/BoxPredictor_4/strided_slice/stack_2"], "attr": {"Index": {"type": "DT_INT32"}, "T": {"type": "DT_INT32"}, "shrink_axis_mask": {"i": "1"}, "begin_mask": {"i": "0"}, "ellipsis_mask": {"i": "0"}, "new_axis_mask": {"i": "0"}, "end_mask": {"i": "0"}}}, {"name": "scout-model-8.6.0/FeatureExtractor/MobilenetV1/Shape_3", "op": "Shape", "input": ["scout-model-8.6.0/FeatureExtractor/MobilenetV1/Conv2d_13_pointwise_1_Conv2d_5_1x1_64/Relu6"], "attr": {"T": {"type": "DT_FLOAT"}, "out_type": {"type": "DT_INT32"}}}, {"name": "scout-model-8.6.0/BoxPredictor_4/stack_1", "op": "Pack", "input": ["scout-model-8.6.0/BoxPredictor_4/strided_slice", "scout-model-8.6.0/BoxPredictor_4/stack_1/1", "scout-model-8.6.0/BoxPredictor_4/stack_1/2"], "attr": {"T": {"type": "DT_INT32"}, "axis": {"i": "0"}, "N": {"i": "3"}}}, {"name": "scout-model-8.6.0/BoxPredictor_4/stack", "op": "Pack", "input": ["scout-model-8.6.0/BoxPredictor_4/strided_slice", "scout-model-8.6.0/BoxPredictor_4/stack/1", "scout-model-8.6.0/BoxPredictor_4/stack/2", "scout-model-8.6.0/BoxPredictor_4/stack/3"], "attr": {"T": {"type": "DT_INT32"}, "axis": {"i": "0"}, "N": {"i": "4"}}}, {"name": "scout-model-8.6.0/FeatureExtractor/MobilenetV1/strided_slice_3", "op": "StridedSlice", "input": ["scout-model-8.6.0/FeatureExtractor/MobilenetV1/Shape_3", "scout-model-8.6.0/FeatureExtractor/MobilenetV1/strided_slice_3/stack", "scout-model-8.6.0/FeatureExtractor/MobilenetV1/strided_slice_3/stack_1", "scout-model-8.6.0/FeatureExtractor/MobilenetV1/strided_slice_3/stack_2"], "attr": {"shrink_axis_mask": {"i": "1"}, "ellipsis_mask": {"i": "0"}, "begin_mask": {"i": "0"}, "new_axis_mask": {"i": "0"}, "end_mask": {"i": "0"}, "T": {"type": "DT_INT32"}, "Index": {"type": "DT_INT32"}}}, {"name": "scout-model-8.6.0/BoxPredictor_4/Reshape_1", "op": "Reshape", "input": ["scout-model-8.6.0/BoxPredictor_4/ClassPredictor/BiasAdd", "scout-model-8.6.0/BoxPredictor_4/stack_1"], "attr": {"T": {"type": "DT_FLOAT"}, "Tshape": {"type": "DT_INT32"}}}, {"name": "scout-model-8.6.0/BoxPredictor_4/Reshape", "op": "Reshape", "input": ["scout-model-8.6.0/BoxPredictor_4/BoxEncodingPredictor/BiasAdd", "scout-model-8.6.0/BoxPredictor_4/stack"], "attr": {"T": {"type": "DT_FLOAT"}, "Tshape": {"type": "DT_INT32"}}}, {"name": "scout-model-8.6.0/FeatureExtractor/MobilenetV1/zeros_6/packed", "op": "Pack", "input": ["scout-model-8.6.0/FeatureExtractor/MobilenetV1/strided_slice_3", "scout-model-8.6.0/FeatureExtractor/MobilenetV1/zeros_6/packed/1", "scout-model-8.6.0/FeatureExtractor/MobilenetV1/zeros_6/packed/2", "scout-model-8.6.0/FeatureExtractor/MobilenetV1/zeros_6/packed/3"], "attr": {"T": {"type": "DT_INT32"}, "axis": {"i": "0"}, "N": {"i": "4"}}}, {"name": "scout-model-8.6.0/FeatureExtractor/MobilenetV1/zeros_7/packed", "op": "Pack", "input": ["scout-model-8.6.0/FeatureExtractor/MobilenetV1/strided_slice_3", "scout-model-8.6.0/FeatureExtractor/MobilenetV1/zeros_7/packed/1", "scout-model-8.6.0/FeatureExtractor/MobilenetV1/zeros_7/packed/2", "scout-model-8.6.0/FeatureExtractor/MobilenetV1/zeros_7/packed/3"], "attr": {"T": {"type": "DT_INT32"}, "axis": {"i": "0"}, "N": {"i": "4"}}}, {"name": "scout-model-8.6.0/Squeeze_4", "op": "Squeeze", "input": ["scout-model-8.6.0/BoxPredictor_4/Reshape"], "attr": {"squeeze_dims": {"list": {"i": ["2"]}}, "T": {"type": "DT_FLOAT"}}}, {"name": "scout-model-8.6.0/FeatureExtractor/MobilenetV1/zeros_6", "op": "Fill", "input": ["scout-model-8.6.0/FeatureExtractor/MobilenetV1/zeros_6/packed", "scout-model-8.6.0/FeatureExtractor/MobilenetV1/zeros_6/Const"], "attr": {"T": {"type": "DT_FLOAT"}, "index_type": {"type": "DT_INT32"}}}, {"name": "scout-model-8.6.0/FeatureExtractor/MobilenetV1/zeros_7", "op": "Fill", "input": ["scout-model-8.6.0/FeatureExtractor/MobilenetV1/zeros_7/packed", "scout-model-8.6.0/FeatureExtractor/MobilenetV1/zeros_7/Const"], "attr": {"T": {"type": "DT_FLOAT"}, "index_type": {"type": "DT_INT32"}}}, {"name": "scout-model-8.6.0/ArithmeticOptimizer/AddOpsRewrite_add_4", "op": "NoOp", "input": ["^scout-model-8.6.0/Squeeze_4", "^scout-model-8.6.0/Squeeze_2", "^scout-model-8.6.0/Squeeze_1", "^scout-model-8.6.0/Squeeze_3", "^scout-model-8.6.0/Squeeze"]}, {"name": "scout-model-8.6.0/FeatureExtractor/MobilenetV1/concat_6", "op": "ConcatV2", "input": ["scout-model-8.6.0/FeatureExtractor/MobilenetV1/Conv2d_13_pointwise_1_Conv2d_5_1x1_64/Relu6", "scout-model-8.6.0/FeatureExtractor/MobilenetV1/zeros_6", "scout-model-8.6.0/FeatureExtractor/MobilenetV1/concat_6/axis"], "attr": {"T": {"type": "DT_FLOAT"}, "N": {"i": "2"}, "Tidx": {"type": "DT_INT32"}}}, {"name": "scout-model-8.6.0/FeatureExtractor/MobilenetV1/concat_7", "op": "ConcatV2", "input": ["scout-model-8.6.0/FeatureExtractor/MobilenetV1/concat_6", "scout-model-8.6.0/FeatureExtractor/MobilenetV1/zeros_7", "scout-model-8.6.0/FeatureExtractor/MobilenetV1/concat_7/axis"], "attr": {"T": {"type": "DT_FLOAT"}, "N": {"i": "2"}, "Tidx": {"type": "DT_INT32"}}}, {"name": "scout-model-8.6.0/FeatureExtractor/MobilenetV1/Conv2d_13_pointwise_2_Conv2d_5_3x3_s2_128/Relu6", "op": "_FusedConv2D", "input": ["scout-model-8.6.0/FeatureExtractor/MobilenetV1/concat_7", "scout-model-8.6.0/FeatureExtractor/MobilenetV1/Conv2d_13_pointwise_2_Conv2d_5_3x3_s2_128/Conv2D_weights", "scout-model-8.6.0/FeatureExtractor/MobilenetV1/Conv2d_13_pointwise_2_Conv2d_5_3x3_s2_128/Conv2D_bn_offset"], "device": "/device:CPU:0", "attr": {"epsilon": {"f": 0.0}, "padding": {"s": "U0FNRQ=="}, "fused_ops": {"list": {"s": ["Qmlhc0FkZA==", "UmVsdTY="]}}, "dilations": {"list": {"i": ["1", "1", "1", "1"]}}, "T": {"type": "DT_FLOAT"}, "data_format": {"s": "TkhXQw=="}, "strides": {"list": {"i": ["1", "2", "2", "1"]}}, "explicit_paddings": {"list": {}}, "use_cudnn_on_gpu": {"b": true}, "num_args": {"i": "1"}}}, {"name": "scout-model-8.6.0/BoxPredictor_5/ClassPredictor/BiasAdd", "op": "_FusedConv2D", "input": ["scout-model-8.6.0/FeatureExtractor/MobilenetV1/Conv2d_13_pointwise_2_Conv2d_5_3x3_s2_128/Relu6", "scout-model-8.6.0/BoxPredictor_5/ClassPredictor/weights", "scout-model-8.6.0/BoxPredictor_5/ClassPredictor/biases"], "device": "/device:CPU:0", "attr": {"dilations": {"list": {"i": ["1", "1", "1", "1"]}}, "T": {"type": "DT_FLOAT"}, "strides": {"list": {"i": ["1", "1", "1", "1"]}}, "data_format": {"s": "TkhXQw=="}, "explicit_paddings": {"list": {}}, "use_cudnn_on_gpu": {"b": true}, "num_args": {"i": "1"}, "epsilon": {"f": 0.0}, "padding": {"s": "U0FNRQ=="}, "fused_ops": {"list": {"s": ["Qmlhc0FkZA=="]}}}}, {"name": "scout-model-8.6.0/BoxPredictor_5/BoxEncodingPredictor/BiasAdd", "op": "_FusedConv2D", "input": ["scout-model-8.6.0/FeatureExtractor/MobilenetV1/Conv2d_13_pointwise_2_Conv2d_5_3x3_s2_128/Relu6", "scout-model-8.6.0/BoxPredictor_5/BoxEncodingPredictor/weights", "scout-model-8.6.0/BoxPredictor_5/BoxEncodingPredictor/biases"], "device": "/device:CPU:0", "attr": {"num_args": {"i": "1"}, "epsilon": {"f": 0.0}, "padding": {"s": "U0FNRQ=="}, "fused_ops": {"list": {"s": ["Qmlhc0FkZA=="]}}, "dilations": {"list": {"i": ["1", "1", "1", "1"]}}, "T": {"type": "DT_FLOAT"}, "strides": {"list": {"i": ["1", "1", "1", "1"]}}, "data_format": {"s": "TkhXQw=="}, "use_cudnn_on_gpu": {"b": true}, "explicit_paddings": {"list": {}}}}, {"name": "scout-model-8.6.0/BoxPredictor_5/Shape", "op": "Shape", "input": ["scout-model-8.6.0/FeatureExtractor/MobilenetV1/Conv2d_13_pointwise_2_Conv2d_5_3x3_s2_128/Relu6"], "attr": {"T": {"type": "DT_FLOAT"}, "out_type": {"type": "DT_INT32"}}}, {"name": "scout-model-8.6.0/BoxPredictor_5/strided_slice", "op": "StridedSlice", "input": ["scout-model-8.6.0/BoxPredictor_5/Shape", "scout-model-8.6.0/BoxPredictor_5/strided_slice/stack", "scout-model-8.6.0/BoxPredictor_5/strided_slice/stack_1", "scout-model-8.6.0/BoxPredictor_5/strided_slice/stack_2"], "attr": {"T": {"type": "DT_INT32"}, "Index": {"type": "DT_INT32"}, "shrink_axis_mask": {"i": "1"}, "ellipsis_mask": {"i": "0"}, "begin_mask": {"i": "0"}, "new_axis_mask": {"i": "0"}, "end_mask": {"i": "0"}}}, {"name": "scout-model-8.6.0/BoxPredictor_5/stack_1", "op": "Pack", "input": ["scout-model-8.6.0/BoxPredictor_5/strided_slice", "scout-model-8.6.0/BoxPredictor_5/stack_1/1", "scout-model-8.6.0/BoxPredictor_5/stack_1/2"], "attr": {"T": {"type": "DT_INT32"}, "axis": {"i": "0"}, "N": {"i": "3"}}}, {"name": "scout-model-8.6.0/BoxPredictor_5/stack", "op": "Pack", "input": ["scout-model-8.6.0/BoxPredictor_5/strided_slice", "scout-model-8.6.0/BoxPredictor_5/stack/1", "scout-model-8.6.0/BoxPredictor_5/stack/2", "scout-model-8.6.0/BoxPredictor_5/stack/3"], "attr": {"T": {"type": "DT_INT32"}, "axis": {"i": "0"}, "N": {"i": "4"}}}, {"name": "scout-model-8.6.0/BoxPredictor_5/Reshape_1", "op": "Reshape", "input": ["scout-model-8.6.0/BoxPredictor_5/ClassPredictor/BiasAdd", "scout-model-8.6.0/BoxPredictor_5/stack_1"], "attr": {"T": {"type": "DT_FLOAT"}, "Tshape": {"type": "DT_INT32"}}}, {"name": "scout-model-8.6.0/BoxPredictor_5/Reshape", "op": "Reshape", "input": ["scout-model-8.6.0/BoxPredictor_5/BoxEncodingPredictor/BiasAdd", "scout-model-8.6.0/BoxPredictor_5/stack"], "attr": {"T": {"type": "DT_FLOAT"}, "Tshape": {"type": "DT_INT32"}}}, {"name": "scout-model-8.6.0/Squeeze_5", "op": "Squeeze", "input": ["scout-model-8.6.0/BoxPredictor_5/Reshape"], "attr": {"T": {"type": "DT_FLOAT"}, "squeeze_dims": {"list": {"i": ["2"]}}}}, {"name": "scout-model-8.6.0/concat/axis", "op": "Const", "input": ["^scout-model-8.6.0/ArithmeticOptimizer/AddOpsRewrite_add_4", "^scout-model-8.6.0/Squeeze_5"], "attr": {"value": {"tensor": {"dtype": "DT_INT32", "tensorShape": {}}}, "dtype": {"type": "DT_INT32"}}}, {"name": "scout-model-8.6.0/concat_1/axis", "op": "Const", "input": ["^scout-model-8.6.0/ArithmeticOptimizer/AddOpsRewrite_add_4", "^scout-model-8.6.0/Squeeze_5"], "attr": {"dtype": {"type": "DT_INT32"}, "value": {"tensor": {"dtype": "DT_INT32", "tensorShape": {}}}}}, {"name": "scout-model-8.6.0/concat", "op": "ConcatV2", "input": ["scout-model-8.6.0/Squeeze", "scout-model-8.6.0/Squeeze_1", "scout-model-8.6.0/Squeeze_2", "scout-model-8.6.0/Squeeze_3", "scout-model-8.6.0/Squeeze_4", "scout-model-8.6.0/Squeeze_5", "scout-model-8.6.0/concat/axis"], "attr": {"N": {"i": "6"}, "Tidx": {"type": "DT_INT32"}, "T": {"type": "DT_FLOAT"}}}, {"name": "scout-model-8.6.0/concat_1", "op": "ConcatV2", "input": ["scout-model-8.6.0/BoxPredictor_0/Reshape_1", "scout-model-8.6.0/BoxPredictor_1/Reshape_1", "scout-model-8.6.0/BoxPredictor_2/Reshape_1", "scout-model-8.6.0/BoxPredictor_3/Reshape_1", "scout-model-8.6.0/BoxPredictor_4/Reshape_1", "scout-model-8.6.0/BoxPredictor_5/Reshape_1", "scout-model-8.6.0/concat_1/axis"], "attr": {"Tidx": {"type": "DT_INT32"}, "T": {"type": "DT_FLOAT"}, "N": {"i": "6"}}}, {"name": "scout-model-8.6.0/Postprocessor/Reshape_1", "op": "Reshape", "input": ["scout-model-8.6.0/concat", "scout-model-8.6.0/Postprocessor/Reshape_1/shape"], "attr": {"T": {"type": "DT_FLOAT"}, "Tshape": {"type": "DT_INT32"}}}, {"name": "scout-model-8.6.0/Postprocessor/Shape", "op": "Shape", "input": ["scout-model-8.6.0/concat"], "attr": {"T": {"type": "DT_FLOAT"}, "out_type": {"type": "DT_INT32"}}}, {"name": "scout-model-8.6.0/Postprocessor/Slice", "op": "Slice", "input": ["scout-model-8.6.0/concat_1", "scout-model-8.6.0/Postprocessor/Slice/begin", "scout-model-8.6.0/Postprocessor/Slice/size"], "attr": {"Index": {"type": "DT_INT32"}, "T": {"type": "DT_FLOAT"}}}, {"name": "scout-model-8.6.0/Postprocessor/Decode/transpose/sub_1", "op": "Const", "input": ["^scout-model-8.6.0/Postprocessor/Reshape_1"], "attr": {"value": {"tensor": {"dtype": "DT_INT32", "tensorShape": {"dim": [{"size": "2"}]}}}, "dtype": {"type": "DT_INT32"}}}, {"name": "scout-model-8.6.0/Postprocessor/strided_slice", "op": "StridedSlice", "input": ["scout-model-8.6.0/Postprocessor/Shape", "scout-model-8.6.0/Postprocessor/strided_slice/stack", "scout-model-8.6.0/Postprocessor/strided_slice/stack_1", "scout-model-8.6.0/Postprocessor/strided_slice/stack_2"], "attr": {"shrink_axis_mask": {"i": "1"}, "ellipsis_mask": {"i": "0"}, "begin_mask": {"i": "0"}, "new_axis_mask": {"i": "0"}, "end_mask": {"i": "0"}, "T": {"type": "DT_INT32"}, "Index": {"type": "DT_INT32"}}}, {"name": "scout-model-8.6.0/Postprocessor/Sigmoid", "op": "Sigmoid", "input": ["scout-model-8.6.0/Postprocessor/Slice"], "attr": {"T": {"type": "DT_FLOAT"}}}, {"name": "scout-model-8.6.0/Postprocessor/Decode/transpose", "op": "Transpose", "input": ["scout-model-8.6.0/Postprocessor/Reshape_1", "scout-model-8.6.0/Postprocessor/Decode/transpose/sub_1"], "attr": {"T": {"type": "DT_FLOAT"}, "Tperm": {"type": "DT_INT32"}}}, {"name": "scout-model-8.6.0/Postprocessor/Tile/multiples", "op": "Pack", "input": ["scout-model-8.6.0/Postprocessor/strided_slice", "scout-model-8.6.0/Postprocessor/Tile/multiples/1", "scout-model-8.6.0/Postprocessor/Tile/multiples/2"], "attr": {"T": {"type": "DT_INT32"}, "axis": {"i": "0"}, "N": {"i": "3"}}}, {"name": "scout-model-8.6.0/Postprocessor/stack", "op": "Pack", "input": ["scout-model-8.6.0/Postprocessor/strided_slice", "scout-model-8.6.0/Postprocessor/stack/1", "scout-model-8.6.0/Postprocessor/stack/2"], "attr": {"T": {"type": "DT_INT32"}, "axis": {"i": "0"}, "N": {"i": "3"}}}, {"name": "scout-model-8.6.0/Postprocessor/raw_box_scores", "op": "Identity", "input": ["scout-model-8.6.0/Postprocessor/Sigmoid"], "attr": {"T": {"type": "DT_FLOAT"}}}, {"name": "scout-model-8.6.0/Postprocessor/Decode/unstack", "op": "Unpack", "input": ["scout-model-8.6.0/Postprocessor/Decode/transpose"], "attr": {"num": {"i": "4"}, "T": {"type": "DT_FLOAT"}, "axis": {"i": "0"}}}, {"name": "scout-model-8.6.0/Postprocessor/Tile", "op": "Tile", "input": ["scout-model-8.6.0/Postprocessor/ExpandDims", "scout-model-8.6.0/Postprocessor/Tile/multiples"], "attr": {"Tmultiples": {"type": "DT_INT32"}, "T": {"type": "DT_FLOAT"}}}, {"name": "scout-model-8.6.0/Postprocessor/Decode/truediv", "op": "Mul", "input": ["scout-model-8.6.0/Postprocessor/Decode/unstack", "ConstantFolding/scout-model-8.6.0/Postprocessor/Decode/truediv_recip"], "attr": {"T": {"type": "DT_FLOAT"}}}, {"name": "scout-model-8.6.0/Postprocessor/Decode/truediv_1", "op": "Mul", "input": ["scout-model-8.6.0/Postprocessor/Decode/unstack:1", "ConstantFolding/scout-model-8.6.0/Postprocessor/Decode/truediv_1_recip"], "attr": {"T": {"type": "DT_FLOAT"}}}, {"name": "scout-model-8.6.0/Postprocessor/Decode/truediv_2", "op": "Mul", "input": ["scout-model-8.6.0/Postprocessor/Decode/unstack:2", "ConstantFolding/scout-model-8.6.0/Postprocessor/Decode/truediv_2_recip"], "attr": {"T": {"type": "DT_FLOAT"}}}, {"name": "scout-model-8.6.0/Postprocessor/Decode/truediv_3", "op": "Mul", "input": ["scout-model-8.6.0/Postprocessor/Decode/unstack:3", "ConstantFolding/scout-model-8.6.0/Postprocessor/Decode/truediv_3_recip"], "attr": {"T": {"type": "DT_FLOAT"}}}, {"name": "scout-model-8.6.0/Postprocessor/Reshape", "op": "Reshape", "input": ["scout-model-8.6.0/Postprocessor/Tile", "scout-model-8.6.0/Postprocessor/Reshape/shape"], "attr": {"T": {"type": "DT_FLOAT"}, "Tshape": {"type": "DT_INT32"}}}, {"name": "scout-model-8.6.0/Postprocessor/Decode/Exp_1", "op": "Exp", "input": ["scout-model-8.6.0/Postprocessor/Decode/truediv_2"], "attr": {"T": {"type": "DT_FLOAT"}}}, {"name": "scout-model-8.6.0/Postprocessor/Decode/Exp", "op": "Exp", "input": ["scout-model-8.6.0/Postprocessor/Decode/truediv_3"], "attr": {"T": {"type": "DT_FLOAT"}}}, {"name": "scout-model-8.6.0/Postprocessor/Decode/get_center_coordinates_and_sizes/transpose/sub_1", "op": "Const", "input": ["^scout-model-8.6.0/Postprocessor/Reshape"], "attr": {"value": {"tensor": {"dtype": "DT_INT32", "tensorShape": {"dim": [{"size": "2"}]}}}, "dtype": {"type": "DT_INT32"}}}, {"name": "scout-model-8.6.0/Postprocessor/Decode/get_center_coordinates_and_sizes/transpose", "op": "Transpose", "input": ["scout-model-8.6.0/Postprocessor/Reshape", "scout-model-8.6.0/Postprocessor/Decode/get_center_coordinates_and_sizes/transpose/sub_1"], "attr": {"T": {"type": "DT_FLOAT"}, "Tperm": {"type": "DT_INT32"}}}, {"name": "scout-model-8.6.0/Postprocessor/Decode/get_center_coordinates_and_sizes/unstack", "op": "Unpack", "input": ["scout-model-8.6.0/Postprocessor/Decode/get_center_coordinates_and_sizes/transpose"], "attr": {"num": {"i": "4"}, "T": {"type": "DT_FLOAT"}, "axis": {"i": "0"}}}, {"name": "scout-model-8.6.0/Postprocessor/Decode/get_center_coordinates_and_sizes/sub_1", "op": "Sub", "input": ["scout-model-8.6.0/Postprocessor/Decode/get_center_coordinates_and_sizes/unstack:2", "scout-model-8.6.0/Postprocessor/Decode/get_center_coordinates_and_sizes/unstack"], "attr": {"T": {"type": "DT_FLOAT"}}}, {"name": "scout-model-8.6.0/Postprocessor/Decode/get_center_coordinates_and_sizes/sub", "op": "Sub", "input": ["scout-model-8.6.0/Postprocessor/Decode/get_center_coordinates_and_sizes/unstack:3", "scout-model-8.6.0/Postprocessor/Decode/get_center_coordinates_and_sizes/unstack:1"], "attr": {"T": {"type": "DT_FLOAT"}}}, {"name": "scout-model-8.6.0/Postprocessor/Decode/mul_2", "op": "Mul", "input": ["scout-model-8.6.0/Postprocessor/Decode/truediv", "scout-model-8.6.0/Postprocessor/Decode/get_center_coordinates_and_sizes/sub_1"], "attr": {"T": {"type": "DT_FLOAT"}}}, {"name": "scout-model-8.6.0/Postprocessor/Decode/get_center_coordinates_and_sizes/truediv", "op": "Mul", "input": ["scout-model-8.6.0/Postprocessor/Decode/get_center_coordinates_and_sizes/sub_1", "ConstantFolding/scout-model-8.6.0/Postprocessor/Decode/get_center_coordinates_and_sizes/truediv_recip"], "attr": {"T": {"type": "DT_FLOAT"}}}, {"name": "scout-model-8.6.0/Postprocessor/Decode/mul_1", "op": "Mul", "input": ["scout-model-8.6.0/Postprocessor/Decode/Exp_1", "scout-model-8.6.0/Postprocessor/Decode/get_center_coordinates_and_sizes/sub_1"], "attr": {"T": {"type": "DT_FLOAT"}}}, {"name": "scout-model-8.6.0/Postprocessor/Decode/mul_3", "op": "Mul", "input": ["scout-model-8.6.0/Postprocessor/Decode/truediv_1", "scout-model-8.6.0/Postprocessor/Decode/get_center_coordinates_and_sizes/sub"], "attr": {"T": {"type": "DT_FLOAT"}}}, {"name": "scout-model-8.6.0/Postprocessor/Decode/get_center_coordinates_and_sizes/truediv_1", "op": "Mul", "input": ["scout-model-8.6.0/Postprocessor/Decode/get_center_coordinates_and_sizes/sub", "ConstantFolding/scout-model-8.6.0/Postprocessor/Decode/get_center_coordinates_and_sizes/truediv_1_recip"], "attr": {"T": {"type": "DT_FLOAT"}}}, {"name": "scout-model-8.6.0/Postprocessor/Decode/mul", "op": "Mul", "input": ["scout-model-8.6.0/Postprocessor/Decode/Exp", "scout-model-8.6.0/Postprocessor/Decode/get_center_coordinates_and_sizes/sub"], "attr": {"T": {"type": "DT_FLOAT"}}}, {"name": "scout-model-8.6.0/Postprocessor/Decode/get_center_coordinates_and_sizes/add", "op": "Add", "input": ["scout-model-8.6.0/Postprocessor/Decode/get_center_coordinates_and_sizes/unstack", "scout-model-8.6.0/Postprocessor/Decode/get_center_coordinates_and_sizes/truediv"], "attr": {"T": {"type": "DT_FLOAT"}}}, {"name": "scout-model-8.6.0/Postprocessor/Decode/truediv_4", "op": "Mul", "input": ["scout-model-8.6.0/Postprocessor/Decode/mul_1", "ConstantFolding/scout-model-8.6.0/Postprocessor/Decode/truediv_4_recip"], "attr": {"T": {"type": "DT_FLOAT"}}}, {"name": "scout-model-8.6.0/Postprocessor/Decode/truediv_6", "op": "Mul", "input": ["scout-model-8.6.0/Postprocessor/Decode/mul_1", "ConstantFolding/scout-model-8.6.0/Postprocessor/Decode/truediv_6_recip"], "attr": {"T": {"type": "DT_FLOAT"}}}, {"name": "scout-model-8.6.0/Postprocessor/Decode/get_center_coordinates_and_sizes/add_1", "op": "Add", "input": ["scout-model-8.6.0/Postprocessor/Decode/get_center_coordinates_and_sizes/unstack:1", "scout-model-8.6.0/Postprocessor/Decode/get_center_coordinates_and_sizes/truediv_1"], "attr": {"T": {"type": "DT_FLOAT"}}}, {"name": "scout-model-8.6.0/Postprocessor/Decode/truediv_5", "op": "Mul", "input": ["scout-model-8.6.0/Postprocessor/Decode/mul", "ConstantFolding/scout-model-8.6.0/Postprocessor/Decode/truediv_5_recip"], "attr": {"T": {"type": "DT_FLOAT"}}}, {"name": "scout-model-8.6.0/Postprocessor/Decode/truediv_7", "op": "Mul", "input": ["scout-model-8.6.0/Postprocessor/Decode/mul", "ConstantFolding/scout-model-8.6.0/Postprocessor/Decode/truediv_7_recip"], "attr": {"T": {"type": "DT_FLOAT"}}}, {"name": "scout-model-8.6.0/Postprocessor/Decode/add", "op": "Add", "input": ["scout-model-8.6.0/Postprocessor/Decode/mul_2", "scout-model-8.6.0/Postprocessor/Decode/get_center_coordinates_and_sizes/add"], "attr": {"T": {"type": "DT_FLOAT"}}}, {"name": "scout-model-8.6.0/Postprocessor/Decode/add_1", "op": "Add", "input": ["scout-model-8.6.0/Postprocessor/Decode/mul_3", "scout-model-8.6.0/Postprocessor/Decode/get_center_coordinates_and_sizes/add_1"], "attr": {"T": {"type": "DT_FLOAT"}}}, {"name": "scout-model-8.6.0/Postprocessor/Decode/sub", "op": "Sub", "input": ["scout-model-8.6.0/Postprocessor/Decode/add", "scout-model-8.6.0/Postprocessor/Decode/truediv_4"], "attr": {"T": {"type": "DT_FLOAT"}}}, {"name": "scout-model-8.6.0/Postprocessor/Decode/add_2", "op": "Add", "input": ["scout-model-8.6.0/Postprocessor/Decode/add", "scout-model-8.6.0/Postprocessor/Decode/truediv_6"], "attr": {"T": {"type": "DT_FLOAT"}}}, {"name": "scout-model-8.6.0/Postprocessor/Decode/sub_1", "op": "Sub", "input": ["scout-model-8.6.0/Postprocessor/Decode/add_1", "scout-model-8.6.0/Postprocessor/Decode/truediv_5"], "attr": {"T": {"type": "DT_FLOAT"}}}, {"name": "scout-model-8.6.0/Postprocessor/Decode/add_3", "op": "Add", "input": ["scout-model-8.6.0/Postprocessor/Decode/add_1", "scout-model-8.6.0/Postprocessor/Decode/truediv_7"], "attr": {"T": {"type": "DT_FLOAT"}}}, {"name": "scout-model-8.6.0/Postprocessor/Decode/stack", "op": "Pack", "input": ["scout-model-8.6.0/Postprocessor/Decode/sub", "scout-model-8.6.0/Postprocessor/Decode/sub_1", "scout-model-8.6.0/Postprocessor/Decode/add_2", "scout-model-8.6.0/Postprocessor/Decode/add_3"], "attr": {"T": {"type": "DT_FLOAT"}, "axis": {"i": "0"}, "N": {"i": "4"}}}, {"name": "scout-model-8.6.0/Postprocessor/Decode/transpose_1/sub_1", "op": "Const", "input": ["^scout-model-8.6.0/Postprocessor/Decode/stack"], "attr": {"value": {"tensor": {"dtype": "DT_INT32", "tensorShape": {"dim": [{"size": "2"}]}}}, "dtype": {"type": "DT_INT32"}}}, {"name": "scout-model-8.6.0/Postprocessor/Decode/transpose_1", "op": "Transpose", "input": ["scout-model-8.6.0/Postprocessor/Decode/stack", "scout-model-8.6.0/Postprocessor/Decode/transpose_1/sub_1"], "attr": {"T": {"type": "DT_FLOAT"}, "Tperm": {"type": "DT_INT32"}}}, {"name": "scout-model-8.6.0/Postprocessor/Reshape_2", "op": "Reshape", "input": ["scout-model-8.6.0/Postprocessor/Decode/transpose_1", "scout-model-8.6.0/Postprocessor/stack"], "attr": {"T": {"type": "DT_FLOAT"}, "Tshape": {"type": "DT_INT32"}}}, {"name": "scout-model-8.6.0/Postprocessor/raw_box_locations", "op": "Identity", "input": ["scout-model-8.6.0/Postprocessor/Reshape_2"], "attr": {"T": {"type": "DT_FLOAT"}}}], "library": {}, "versions": {}}, "weightsManifest": [{"paths": ["group1-shard1of6.bin", "group1-shard2of6.bin", "group1-shard3of6.bin", "group1-shard4of6.bin", "group1-shard5of6.bin", "group1-shard6of6.bin"], "weights": [{"name": "ConstantFolding/scout-model-8.6.0/Postprocessor/Decode/truediv_4_recip", "shape": [], "dtype": "float32"}, {"name": "ConstantFolding/scout-model-8.6.0/Postprocessor/Decode/truediv_5_recip", "shape": [], "dtype": "float32"}, {"name": "ConstantFolding/scout-model-8.6.0/Postprocessor/Decode/truediv_recip", "shape": [], "dtype": "float32"}, {"name": "ConstantFolding/scout-model-8.6.0/Postprocessor/Decode/get_center_coordinates_and_sizes/truediv_recip", "shape": [], "dtype": "float32"}, {"name": "ConstantFolding/scout-model-8.6.0/Postprocessor/Decode/truediv_2_recip", "shape": [], "dtype": "float32"}, {"name": "ConstantFolding/scout-model-8.6.0/Postprocessor/Decode/truediv_6_recip", "shape": [], "dtype": "float32"}, {"name": "ConstantFolding/scout-model-8.6.0/Postprocessor/Decode/truediv_1_recip", "shape": [], "dtype": "float32"}, {"name": "ConstantFolding/scout-model-8.6.0/Postprocessor/Decode/get_center_coordinates_and_sizes/truediv_1_recip", "shape": [], "dtype": "float32"}, {"name": "scout-model-8.6.0/Postprocessor/Reshape_1/shape", "shape": [2], "dtype": "int32"}, {"name": "ConstantFolding/scout-model-8.6.0/Postprocessor/Decode/truediv_3_recip", "shape": [], "dtype": "float32"}, {"name": "scout-model-8.6.0/Postprocessor/ExpandDims", "shape": [1, 1917, 4], "dtype": "float32"}, {"name": "scout-model-8.6.0/Postprocessor/Tile/multiples/1", "shape": [], "dtype": "int32"}, {"name": "scout-model-8.6.0/Postprocessor/Tile/multiples/2", "shape": [], "dtype": "int32"}, {"name": "scout-model-8.6.0/Postprocessor/Reshape/shape", "shape": [2], "dtype": "int32"}, {"name": "ConstantFolding/scout-model-8.6.0/Postprocessor/Decode/truediv_7_recip", "shape": [], "dtype": "float32"}, {"name": "scout-model-8.6.0/Postprocessor/strided_slice/stack", "shape": [1], "dtype": "int32"}, {"name": "scout-model-8.6.0/Postprocessor/strided_slice/stack_1", "shape": [1], "dtype": "int32"}, {"name": "scout-model-8.6.0/Postprocessor/strided_slice/stack_2", "shape": [1], "dtype": "int32"}, {"name": "scout-model-8.6.0/Postprocessor/stack/1", "shape": [], "dtype": "int32"}, {"name": "scout-model-8.6.0/Postprocessor/stack/2", "shape": [], "dtype": "int32"}, {"name": "scout-model-8.6.0/BoxPredictor_0/ClassPredictor/weights", "shape": [1, 1, 512, 36], "dtype": "float32"}, {"name": "scout-model-8.6.0/BoxPredictor_0/ClassPredictor/biases", "shape": [36], "dtype": "float32"}, {"name": "scout-model-8.6.0/BoxPredictor_0/stack_1/1", "shape": [], "dtype": "int32"}, {"name": "scout-model-8.6.0/BoxPredictor_0/stack_1/2", "shape": [], "dtype": "int32"}, {"name": "scout-model-8.6.0/BoxPredictor_1/ClassPredictor/weights", "shape": [1, 1, 1024, 72], "dtype": "float32"}, {"name": "scout-model-8.6.0/BoxPredictor_1/ClassPredictor/biases", "shape": [72], "dtype": "float32"}, {"name": "scout-model-8.6.0/BoxPredictor_1/stack_1/1", "shape": [], "dtype": "int32"}, {"name": "scout-model-8.6.0/BoxPredictor_1/stack_1/2", "shape": [], "dtype": "int32"}, {"name": "scout-model-8.6.0/BoxPredictor_2/ClassPredictor/weights", "shape": [1, 1, 512, 72], "dtype": "float32"}, {"name": "scout-model-8.6.0/BoxPredictor_2/ClassPredictor/biases", "shape": [72], "dtype": "float32"}, {"name": "scout-model-8.6.0/BoxPredictor_2/stack_1/1", "shape": [], "dtype": "int32"}, {"name": "scout-model-8.6.0/BoxPredictor_2/stack_1/2", "shape": [], "dtype": "int32"}, {"name": "scout-model-8.6.0/BoxPredictor_3/ClassPredictor/weights", "shape": [1, 1, 256, 72], "dtype": "float32"}, {"name": "scout-model-8.6.0/BoxPredictor_3/ClassPredictor/biases", "shape": [72], "dtype": "float32"}, {"name": "scout-model-8.6.0/BoxPredictor_3/stack_1/1", "shape": [], "dtype": "int32"}, {"name": "scout-model-8.6.0/BoxPredictor_3/stack_1/2", "shape": [], "dtype": "int32"}, {"name": "scout-model-8.6.0/BoxPredictor_4/ClassPredictor/weights", "shape": [1, 1, 256, 72], "dtype": "float32"}, {"name": "scout-model-8.6.0/BoxPredictor_4/ClassPredictor/biases", "shape": [72], "dtype": "float32"}, {"name": "scout-model-8.6.0/BoxPredictor_4/stack_1/1", "shape": [], "dtype": "int32"}, {"name": "scout-model-8.6.0/BoxPredictor_4/stack_1/2", "shape": [], "dtype": "int32"}, {"name": "scout-model-8.6.0/BoxPredictor_5/ClassPredictor/weights", "shape": [1, 1, 128, 72], "dtype": "float32"}, {"name": "scout-model-8.6.0/BoxPredictor_5/ClassPredictor/biases", "shape": [72], "dtype": "float32"}, {"name": "scout-model-8.6.0/BoxPredictor_5/stack_1/1", "shape": [], "dtype": "int32"}, {"name": "scout-model-8.6.0/BoxPredictor_5/stack_1/2", "shape": [], "dtype": "int32"}, {"name": "scout-model-8.6.0/BoxPredictor_4/BoxEncodingPredictor/weights", "shape": [1, 1, 256, 24], "dtype": "float32"}, {"name": "scout-model-8.6.0/BoxPredictor_4/BoxEncodingPredictor/biases", "shape": [24], "dtype": "float32"}, {"name": "scout-model-8.6.0/BoxPredictor_4/strided_slice/stack", "shape": [1], "dtype": "int32"}, {"name": "scout-model-8.6.0/BoxPredictor_4/strided_slice/stack_1", "shape": [1], "dtype": "int32"}, {"name": "scout-model-8.6.0/BoxPredictor_4/strided_slice/stack_2", "shape": [1], "dtype": "int32"}, {"name": "scout-model-8.6.0/BoxPredictor_4/stack/1", "shape": [], "dtype": "int32"}, {"name": "scout-model-8.6.0/BoxPredictor_4/stack/2", "shape": [], "dtype": "int32"}, {"name": "scout-model-8.6.0/BoxPredictor_4/stack/3", "shape": [], "dtype": "int32"}, {"name": "scout-model-8.6.0/BoxPredictor_2/BoxEncodingPredictor/weights", "shape": [1, 1, 512, 24], "dtype": "float32"}, {"name": "scout-model-8.6.0/BoxPredictor_2/BoxEncodingPredictor/biases", "shape": [24], "dtype": "float32"}, {"name": "scout-model-8.6.0/BoxPredictor_2/strided_slice/stack", "shape": [1], "dtype": "int32"}, {"name": "scout-model-8.6.0/BoxPredictor_2/strided_slice/stack_1", "shape": [1], "dtype": "int32"}, {"name": "scout-model-8.6.0/BoxPredictor_2/strided_slice/stack_2", "shape": [1], "dtype": "int32"}, {"name": "scout-model-8.6.0/BoxPredictor_2/stack/1", "shape": [], "dtype": "int32"}, {"name": "scout-model-8.6.0/BoxPredictor_2/stack/2", "shape": [], "dtype": "int32"}, {"name": "scout-model-8.6.0/BoxPredictor_2/stack/3", "shape": [], "dtype": "int32"}, {"name": "scout-model-8.6.0/BoxPredictor_1/BoxEncodingPredictor/weights", "shape": [1, 1, 1024, 24], "dtype": "float32"}, {"name": "scout-model-8.6.0/BoxPredictor_1/BoxEncodingPredictor/biases", "shape": [24], "dtype": "float32"}, {"name": "scout-model-8.6.0/BoxPredictor_1/strided_slice/stack", "shape": [1], "dtype": "int32"}, {"name": "scout-model-8.6.0/BoxPredictor_1/strided_slice/stack_1", "shape": [1], "dtype": "int32"}, {"name": "scout-model-8.6.0/BoxPredictor_1/strided_slice/stack_2", "shape": [1], "dtype": "int32"}, {"name": "scout-model-8.6.0/BoxPredictor_1/stack/1", "shape": [], "dtype": "int32"}, {"name": "scout-model-8.6.0/BoxPredictor_1/stack/2", "shape": [], "dtype": "int32"}, {"name": "scout-model-8.6.0/BoxPredictor_1/stack/3", "shape": [], "dtype": "int32"}, {"name": "scout-model-8.6.0/BoxPredictor_3/BoxEncodingPredictor/weights", "shape": [1, 1, 256, 24], "dtype": "float32"}, {"name": "scout-model-8.6.0/BoxPredictor_3/BoxEncodingPredictor/biases", "shape": [24], "dtype": "float32"}, {"name": "scout-model-8.6.0/BoxPredictor_3/strided_slice/stack", "shape": [1], "dtype": "int32"}, {"name": "scout-model-8.6.0/BoxPredictor_3/strided_slice/stack_1", "shape": [1], "dtype": "int32"}, {"name": "scout-model-8.6.0/BoxPredictor_3/strided_slice/stack_2", "shape": [1], "dtype": "int32"}, {"name": "scout-model-8.6.0/BoxPredictor_3/stack/1", "shape": [], "dtype": "int32"}, {"name": "scout-model-8.6.0/BoxPredictor_3/stack/2", "shape": [], "dtype": "int32"}, {"name": "scout-model-8.6.0/BoxPredictor_3/stack/3", "shape": [], "dtype": "int32"}, {"name": "scout-model-8.6.0/BoxPredictor_0/BoxEncodingPredictor/weights", "shape": [1, 1, 512, 12], "dtype": "float32"}, {"name": "scout-model-8.6.0/BoxPredictor_0/BoxEncodingPredictor/biases", "shape": [12], "dtype": "float32"}, {"name": "scout-model-8.6.0/BoxPredictor_0/strided_slice/stack", "shape": [1], "dtype": "int32"}, {"name": "scout-model-8.6.0/BoxPredictor_0/strided_slice/stack_1", "shape": [1], "dtype": "int32"}, {"name": "scout-model-8.6.0/BoxPredictor_0/strided_slice/stack_2", "shape": [1], "dtype": "int32"}, {"name": "scout-model-8.6.0/BoxPredictor_0/stack/1", "shape": [], "dtype": "int32"}, {"name": "scout-model-8.6.0/BoxPredictor_0/stack/2", "shape": [], "dtype": "int32"}, {"name": "scout-model-8.6.0/BoxPredictor_0/stack/3", "shape": [], "dtype": "int32"}, {"name": "scout-model-8.6.0/BoxPredictor_5/BoxEncodingPredictor/weights", "shape": [1, 1, 128, 24], "dtype": "float32"}, {"name": "scout-model-8.6.0/BoxPredictor_5/BoxEncodingPredictor/biases", "shape": [24], "dtype": "float32"}, {"name": "scout-model-8.6.0/Preprocessor/mul/x", "shape": [], "dtype": "float32"}, {"name": "scout-model-8.6.0/Preprocessor/map/TensorArrayStack/range/start", "shape": [], "dtype": "int32"}, {"name": "scout-model-8.6.0/Preprocessor/map/TensorArrayStack/range/delta", "shape": [], "dtype": "int32"}, {"name": "scout-model-8.6.0/Preprocessor/map/TensorArrayUnstack/range/start", "shape": [], "dtype": "int32"}, {"name": "scout-model-8.6.0/Preprocessor/map/TensorArrayUnstack/strided_slice/stack", "shape": [1], "dtype": "int32"}, {"name": "scout-model-8.6.0/Preprocessor/map/TensorArrayUnstack/strided_slice/stack_1", "shape": [1], "dtype": "int32"}, {"name": "scout-model-8.6.0/Preprocessor/map/TensorArrayUnstack/strided_slice/stack_2", "shape": [1], "dtype": "int32"}, {"name": "scout-model-8.6.0/Preprocessor/map/TensorArrayUnstack/range/delta", "shape": [], "dtype": "int32"}, {"name": "scout-model-8.6.0/Preprocessor/map/Const", "shape": [], "dtype": "int32"}, {"name": "scout-model-8.6.0/Preprocessor/map/strided_slice/stack", "shape": [1], "dtype": "int32"}, {"name": "scout-model-8.6.0/Preprocessor/map/strided_slice/stack_1", "shape": [1], "dtype": "int32"}, {"name": "scout-model-8.6.0/Preprocessor/map/strided_slice/stack_2", "shape": [1], "dtype": "int32"}, {"name": "scout-model-8.6.0/Preprocessor/sub/y", "shape": [], "dtype": "float32"}, {"name": "scout-model-8.6.0/BoxPredictor_5/strided_slice/stack", "shape": [1], "dtype": "int32"}, {"name": "scout-model-8.6.0/BoxPredictor_5/strided_slice/stack_1", "shape": [1], "dtype": "int32"}, {"name": "scout-model-8.6.0/BoxPredictor_5/strided_slice/stack_2", "shape": [1], "dtype": "int32"}, {"name": "scout-model-8.6.0/BoxPredictor_5/stack/1", "shape": [], "dtype": "int32"}, {"name": "scout-model-8.6.0/BoxPredictor_5/stack/2", "shape": [], "dtype": "int32"}, {"name": "scout-model-8.6.0/BoxPredictor_5/stack/3", "shape": [], "dtype": "int32"}, {"name": "scout-model-8.6.0/Postprocessor/Slice/begin", "shape": [3], "dtype": "int32"}, {"name": "scout-model-8.6.0/Postprocessor/Slice/size", "shape": [3], "dtype": "int32"}, {"name": "scout-model-8.6.0/FeatureExtractor/MobilenetV1/MobilenetV1/Conv2d_0/Conv2D_weights", "shape": [3, 3, 3, 32], "dtype": "float32"}, {"name": "scout-model-8.6.0/FeatureExtractor/MobilenetV1/MobilenetV1/Conv2d_0/Conv2D_bn_offset", "shape": [32], "dtype": "float32"}, {"name": "scout-model-8.6.0/FeatureExtractor/MobilenetV1/MobilenetV1/Conv2d_1_depthwise/depthwise_weights", "shape": [3, 3, 32, 1], "dtype": "float32"}, {"name": "scout-model-8.6.0/FeatureExtractor/MobilenetV1/MobilenetV1/Conv2d_1_depthwise/depthwise_bn_offset", "shape": [32], "dtype": "float32"}, {"name": "scout-model-8.6.0/FeatureExtractor/MobilenetV1/MobilenetV1/Conv2d_1_pointwise/Conv2D_weights", "shape": [1, 1, 32, 64], "dtype": "float32"}, {"name": "scout-model-8.6.0/FeatureExtractor/MobilenetV1/MobilenetV1/Conv2d_1_pointwise/Conv2D_bn_offset", "shape": [64], "dtype": "float32"}, {"name": "scout-model-8.6.0/FeatureExtractor/MobilenetV1/MobilenetV1/Conv2d_2_depthwise/depthwise_weights", "shape": [3, 3, 64, 1], "dtype": "float32"}, {"name": "scout-model-8.6.0/FeatureExtractor/MobilenetV1/MobilenetV1/Conv2d_2_depthwise/depthwise_bn_offset", "shape": [64], "dtype": "float32"}, {"name": "scout-model-8.6.0/FeatureExtractor/MobilenetV1/MobilenetV1/Conv2d_2_pointwise/Conv2D_weights", "shape": [1, 1, 64, 128], "dtype": "float32"}, {"name": "scout-model-8.6.0/FeatureExtractor/MobilenetV1/MobilenetV1/Conv2d_2_pointwise/Conv2D_bn_offset", "shape": [128], "dtype": "float32"}, {"name": "scout-model-8.6.0/FeatureExtractor/MobilenetV1/MobilenetV1/Conv2d_3_depthwise/depthwise_weights", "shape": [3, 3, 128, 1], "dtype": "float32"}, {"name": "scout-model-8.6.0/FeatureExtractor/MobilenetV1/MobilenetV1/Conv2d_3_depthwise/depthwise_bn_offset", "shape": [128], "dtype": "float32"}, {"name": "scout-model-8.6.0/FeatureExtractor/MobilenetV1/MobilenetV1/Conv2d_3_pointwise/Conv2D_weights", "shape": [1, 1, 128, 128], "dtype": "float32"}, {"name": "scout-model-8.6.0/FeatureExtractor/MobilenetV1/MobilenetV1/Conv2d_3_pointwise/Conv2D_bn_offset", "shape": [128], "dtype": "float32"}, {"name": "scout-model-8.6.0/FeatureExtractor/MobilenetV1/MobilenetV1/Conv2d_4_depthwise/depthwise_weights", "shape": [3, 3, 128, 1], "dtype": "float32"}, {"name": "scout-model-8.6.0/FeatureExtractor/MobilenetV1/MobilenetV1/Conv2d_4_depthwise/depthwise_bn_offset", "shape": [128], "dtype": "float32"}, {"name": "scout-model-8.6.0/FeatureExtractor/MobilenetV1/MobilenetV1/Conv2d_4_pointwise/Conv2D_weights", "shape": [1, 1, 128, 256], "dtype": "float32"}, {"name": "scout-model-8.6.0/FeatureExtractor/MobilenetV1/MobilenetV1/Conv2d_4_pointwise/Conv2D_bn_offset", "shape": [256], "dtype": "float32"}, {"name": "scout-model-8.6.0/FeatureExtractor/MobilenetV1/MobilenetV1/Conv2d_5_depthwise/depthwise_weights", "shape": [3, 3, 256, 1], "dtype": "float32"}, {"name": "scout-model-8.6.0/FeatureExtractor/MobilenetV1/MobilenetV1/Conv2d_5_depthwise/depthwise_bn_offset", "shape": [256], "dtype": "float32"}, {"name": "scout-model-8.6.0/FeatureExtractor/MobilenetV1/MobilenetV1/Conv2d_5_pointwise/Conv2D_weights", "shape": [1, 1, 256, 256], "dtype": "float32"}, {"name": "scout-model-8.6.0/FeatureExtractor/MobilenetV1/MobilenetV1/Conv2d_5_pointwise/Conv2D_bn_offset", "shape": [256], "dtype": "float32"}, {"name": "scout-model-8.6.0/FeatureExtractor/MobilenetV1/MobilenetV1/Conv2d_6_depthwise/depthwise_weights", "shape": [3, 3, 256, 1], "dtype": "float32"}, {"name": "scout-model-8.6.0/FeatureExtractor/MobilenetV1/MobilenetV1/Conv2d_6_depthwise/depthwise_bn_offset", "shape": [256], "dtype": "float32"}, {"name": "scout-model-8.6.0/FeatureExtractor/MobilenetV1/MobilenetV1/Conv2d_6_pointwise/Conv2D_weights", "shape": [1, 1, 256, 512], "dtype": "float32"}, {"name": "scout-model-8.6.0/FeatureExtractor/MobilenetV1/MobilenetV1/Conv2d_6_pointwise/Conv2D_bn_offset", "shape": [512], "dtype": "float32"}, {"name": "scout-model-8.6.0/FeatureExtractor/MobilenetV1/MobilenetV1/Conv2d_7_depthwise/depthwise_weights", "shape": [3, 3, 512, 1], "dtype": "float32"}, {"name": "scout-model-8.6.0/FeatureExtractor/MobilenetV1/MobilenetV1/Conv2d_7_depthwise/depthwise_bn_offset", "shape": [512], "dtype": "float32"}, {"name": "scout-model-8.6.0/FeatureExtractor/MobilenetV1/MobilenetV1/Conv2d_7_pointwise/Conv2D_weights", "shape": [1, 1, 512, 512], "dtype": "float32"}, {"name": "scout-model-8.6.0/FeatureExtractor/MobilenetV1/MobilenetV1/Conv2d_7_pointwise/Conv2D_bn_offset", "shape": [512], "dtype": "float32"}, {"name": "scout-model-8.6.0/FeatureExtractor/MobilenetV1/MobilenetV1/Conv2d_8_depthwise/depthwise_weights", "shape": [3, 3, 512, 1], "dtype": "float32"}, {"name": "scout-model-8.6.0/FeatureExtractor/MobilenetV1/MobilenetV1/Conv2d_8_depthwise/depthwise_bn_offset", "shape": [512], "dtype": "float32"}, {"name": "scout-model-8.6.0/FeatureExtractor/MobilenetV1/MobilenetV1/Conv2d_8_pointwise/Conv2D_weights", "shape": [1, 1, 512, 512], "dtype": "float32"}, {"name": "scout-model-8.6.0/FeatureExtractor/MobilenetV1/MobilenetV1/Conv2d_8_pointwise/Conv2D_bn_offset", "shape": [512], "dtype": "float32"}, {"name": "scout-model-8.6.0/FeatureExtractor/MobilenetV1/MobilenetV1/Conv2d_9_depthwise/depthwise_weights", "shape": [3, 3, 512, 1], "dtype": "float32"}, {"name": "scout-model-8.6.0/FeatureExtractor/MobilenetV1/MobilenetV1/Conv2d_9_depthwise/depthwise_bn_offset", "shape": [512], "dtype": "float32"}, {"name": "scout-model-8.6.0/FeatureExtractor/MobilenetV1/MobilenetV1/Conv2d_9_pointwise/Conv2D_weights", "shape": [1, 1, 512, 512], "dtype": "float32"}, {"name": "scout-model-8.6.0/FeatureExtractor/MobilenetV1/MobilenetV1/Conv2d_9_pointwise/Conv2D_bn_offset", "shape": [512], "dtype": "float32"}, {"name": "scout-model-8.6.0/FeatureExtractor/MobilenetV1/MobilenetV1/Conv2d_10_depthwise/depthwise_weights", "shape": [3, 3, 512, 1], "dtype": "float32"}, {"name": "scout-model-8.6.0/FeatureExtractor/MobilenetV1/MobilenetV1/Conv2d_10_depthwise/depthwise_bn_offset", "shape": [512], "dtype": "float32"}, {"name": "scout-model-8.6.0/FeatureExtractor/MobilenetV1/MobilenetV1/Conv2d_10_pointwise/Conv2D_weights", "shape": [1, 1, 512, 512], "dtype": "float32"}, {"name": "scout-model-8.6.0/FeatureExtractor/MobilenetV1/MobilenetV1/Conv2d_10_pointwise/Conv2D_bn_offset", "shape": [512], "dtype": "float32"}, {"name": "scout-model-8.6.0/FeatureExtractor/MobilenetV1/MobilenetV1/Conv2d_11_depthwise/depthwise_weights", "shape": [3, 3, 512, 1], "dtype": "float32"}, {"name": "scout-model-8.6.0/FeatureExtractor/MobilenetV1/MobilenetV1/Conv2d_11_depthwise/depthwise_bn_offset", "shape": [512], "dtype": "float32"}, {"name": "scout-model-8.6.0/FeatureExtractor/MobilenetV1/MobilenetV1/Conv2d_11_pointwise/Conv2D_weights", "shape": [1, 1, 512, 512], "dtype": "float32"}, {"name": "scout-model-8.6.0/FeatureExtractor/MobilenetV1/MobilenetV1/Conv2d_11_pointwise/Conv2D_bn_offset", "shape": [512], "dtype": "float32"}, {"name": "scout-model-8.6.0/FeatureExtractor/MobilenetV1/MobilenetV1/Conv2d_12_depthwise/depthwise_weights", "shape": [3, 3, 512, 1], "dtype": "float32"}, {"name": "scout-model-8.6.0/FeatureExtractor/MobilenetV1/MobilenetV1/Conv2d_12_depthwise/depthwise_bn_offset", "shape": [512], "dtype": "float32"}, {"name": "scout-model-8.6.0/FeatureExtractor/MobilenetV1/MobilenetV1/Conv2d_12_pointwise/Conv2D_weights", "shape": [1, 1, 512, 1024], "dtype": "float32"}, {"name": "scout-model-8.6.0/FeatureExtractor/MobilenetV1/MobilenetV1/Conv2d_12_pointwise/Conv2D_bn_offset", "shape": [1024], "dtype": "float32"}, {"name": "scout-model-8.6.0/FeatureExtractor/MobilenetV1/MobilenetV1/Conv2d_13_depthwise/depthwise_weights", "shape": [3, 3, 1024, 1], "dtype": "float32"}, {"name": "scout-model-8.6.0/FeatureExtractor/MobilenetV1/MobilenetV1/Conv2d_13_depthwise/depthwise_bn_offset", "shape": [1024], "dtype": "float32"}, {"name": "scout-model-8.6.0/FeatureExtractor/MobilenetV1/MobilenetV1/Conv2d_13_pointwise/Conv2D_weights", "shape": [1, 1, 1024, 1024], "dtype": "float32"}, {"name": "scout-model-8.6.0/FeatureExtractor/MobilenetV1/MobilenetV1/Conv2d_13_pointwise/Conv2D_bn_offset", "shape": [1024], "dtype": "float32"}, {"name": "scout-model-8.6.0/FeatureExtractor/MobilenetV1/Conv2d_13_pointwise_1_Conv2d_2_1x1_256/Conv2D_weights", "shape": [1, 1, 1024, 256], "dtype": "float32"}, {"name": "scout-model-8.6.0/FeatureExtractor/MobilenetV1/Conv2d_13_pointwise_1_Conv2d_2_1x1_256/Conv2D_bn_offset", "shape": [256], "dtype": "float32"}, {"name": "scout-model-8.6.0/FeatureExtractor/MobilenetV1/Conv2d_13_pointwise_2_Conv2d_2_3x3_s2_512/Conv2D_weights", "shape": [3, 3, 256, 512], "dtype": "float32"}, {"name": "scout-model-8.6.0/FeatureExtractor/MobilenetV1/Conv2d_13_pointwise_2_Conv2d_2_3x3_s2_512/Conv2D_bn_offset", "shape": [512], "dtype": "float32"}, {"name": "scout-model-8.6.0/FeatureExtractor/MobilenetV1/Conv2d_13_pointwise_1_Conv2d_3_1x1_128/Conv2D_weights", "shape": [1, 1, 512, 128], "dtype": "float32"}, {"name": "scout-model-8.6.0/FeatureExtractor/MobilenetV1/Conv2d_13_pointwise_1_Conv2d_3_1x1_128/Conv2D_bn_offset", "shape": [128], "dtype": "float32"}, {"name": "scout-model-8.6.0/FeatureExtractor/MobilenetV1/Conv2d_13_pointwise_2_Conv2d_3_3x3_s2_256/Conv2D_weights", "shape": [3, 3, 128, 256], "dtype": "float32"}, {"name": "scout-model-8.6.0/FeatureExtractor/MobilenetV1/Conv2d_13_pointwise_2_Conv2d_3_3x3_s2_256/Conv2D_bn_offset", "shape": [256], "dtype": "float32"}, {"name": "scout-model-8.6.0/FeatureExtractor/MobilenetV1/Conv2d_13_pointwise_1_Conv2d_4_1x1_128/Conv2D_weights", "shape": [1, 1, 256, 128], "dtype": "float32"}, {"name": "scout-model-8.6.0/FeatureExtractor/MobilenetV1/Conv2d_13_pointwise_1_Conv2d_4_1x1_128/Conv2D_bn_offset", "shape": [128], "dtype": "float32"}, {"name": "scout-model-8.6.0/FeatureExtractor/MobilenetV1/Conv2d_13_pointwise_2_Conv2d_4_3x3_s2_256/Conv2D_weights", "shape": [3, 3, 128, 256], "dtype": "float32"}, {"name": "scout-model-8.6.0/FeatureExtractor/MobilenetV1/Conv2d_13_pointwise_2_Conv2d_4_3x3_s2_256/Conv2D_bn_offset", "shape": [256], "dtype": "float32"}, {"name": "scout-model-8.6.0/FeatureExtractor/MobilenetV1/Conv2d_13_pointwise_1_Conv2d_5_1x1_64/Conv2D_weights", "shape": [1, 1, 256, 64], "dtype": "float32"}, {"name": "scout-model-8.6.0/FeatureExtractor/MobilenetV1/Conv2d_13_pointwise_1_Conv2d_5_1x1_64/Conv2D_bn_offset", "shape": [64], "dtype": "float32"}, {"name": "scout-model-8.6.0/FeatureExtractor/MobilenetV1/Conv2d_13_pointwise_2_Conv2d_5_3x3_s2_128/Conv2D_weights", "shape": [3, 3, 64, 128], "dtype": "float32"}, {"name": "scout-model-8.6.0/FeatureExtractor/MobilenetV1/Conv2d_13_pointwise_2_Conv2d_5_3x3_s2_128/Conv2D_bn_offset", "shape": [128], "dtype": "float32"}, {"name": "scout-model-8.6.0/Preprocessor/map/while/ResizeImage/resize_images/ExpandDims/dim", "shape": [], "dtype": "int32"}, {"name": "scout-model-8.6.0/Preprocessor/map/while/ResizeImage/resize_images/size", "shape": [2], "dtype": "int32"}, {"name": "scout-model-8.6.0/Preprocessor/map/while/add/y", "shape": [], "dtype": "int32"}, {"name": "scout-model-8.6.0/FeatureExtractor/MobilenetV1/zeros_6/packed/1", "shape": [], "dtype": "int32"}, {"name": "scout-model-8.6.0/FeatureExtractor/MobilenetV1/zeros_6/packed/2", "shape": [], "dtype": "int32"}, {"name": "scout-model-8.6.0/FeatureExtractor/MobilenetV1/zeros_6/packed/3", "shape": [], "dtype": "int32"}, {"name": "scout-model-8.6.0/FeatureExtractor/MobilenetV1/zeros_6/Const", "shape": [], "dtype": "float32"}, {"name": "scout-model-8.6.0/FeatureExtractor/MobilenetV1/concat_6/axis", "shape": [], "dtype": "int32"}, {"name": "scout-model-8.6.0/FeatureExtractor/MobilenetV1/zeros_4/packed/1", "shape": [], "dtype": "int32"}, {"name": "scout-model-8.6.0/FeatureExtractor/MobilenetV1/zeros_4/packed/2", "shape": [], "dtype": "int32"}, {"name": "scout-model-8.6.0/FeatureExtractor/MobilenetV1/zeros_4/packed/3", "shape": [], "dtype": "int32"}, {"name": "scout-model-8.6.0/FeatureExtractor/MobilenetV1/zeros_4/Const", "shape": [], "dtype": "float32"}, {"name": "scout-model-8.6.0/FeatureExtractor/MobilenetV1/concat_4/axis", "shape": [], "dtype": "int32"}, {"name": "scout-model-8.6.0/FeatureExtractor/MobilenetV1/zeros_2/packed/1", "shape": [], "dtype": "int32"}, {"name": "scout-model-8.6.0/FeatureExtractor/MobilenetV1/zeros_2/packed/2", "shape": [], "dtype": "int32"}, {"name": "scout-model-8.6.0/FeatureExtractor/MobilenetV1/zeros_2/packed/3", "shape": [], "dtype": "int32"}, {"name": "scout-model-8.6.0/FeatureExtractor/MobilenetV1/zeros_2/Const", "shape": [], "dtype": "float32"}, {"name": "scout-model-8.6.0/FeatureExtractor/MobilenetV1/concat_2/axis", "shape": [], "dtype": "int32"}, {"name": "scout-model-8.6.0/FeatureExtractor/MobilenetV1/zeros/packed/1", "shape": [], "dtype": "int32"}, {"name": "scout-model-8.6.0/FeatureExtractor/MobilenetV1/zeros/packed/2", "shape": [], "dtype": "int32"}, {"name": "scout-model-8.6.0/FeatureExtractor/MobilenetV1/zeros/packed/3", "shape": [], "dtype": "int32"}, {"name": "scout-model-8.6.0/FeatureExtractor/MobilenetV1/zeros/Const", "shape": [], "dtype": "float32"}, {"name": "scout-model-8.6.0/FeatureExtractor/MobilenetV1/concat/axis", "shape": [], "dtype": "int32"}, {"name": "scout-model-8.6.0/FeatureExtractor/MobilenetV1/strided_slice/stack", "shape": [1], "dtype": "int32"}, {"name": "scout-model-8.6.0/FeatureExtractor/MobilenetV1/strided_slice/stack_1", "shape": [1], "dtype": "int32"}, {"name": "scout-model-8.6.0/FeatureExtractor/MobilenetV1/strided_slice/stack_2", "shape": [1], "dtype": "int32"}, {"name": "scout-model-8.6.0/FeatureExtractor/MobilenetV1/zeros_1/packed/1", "shape": [], "dtype": "int32"}, {"name": "scout-model-8.6.0/FeatureExtractor/MobilenetV1/zeros_1/packed/2", "shape": [], "dtype": "int32"}, {"name": "scout-model-8.6.0/FeatureExtractor/MobilenetV1/zeros_1/packed/3", "shape": [], "dtype": "int32"}, {"name": "scout-model-8.6.0/FeatureExtractor/MobilenetV1/zeros_1/Const", "shape": [], "dtype": "float32"}, {"name": "scout-model-8.6.0/FeatureExtractor/MobilenetV1/concat_1/axis", "shape": [], "dtype": "int32"}, {"name": "scout-model-8.6.0/FeatureExtractor/MobilenetV1/strided_slice_1/stack", "shape": [1], "dtype": "int32"}, {"name": "scout-model-8.6.0/FeatureExtractor/MobilenetV1/strided_slice_1/stack_1", "shape": [1], "dtype": "int32"}, {"name": "scout-model-8.6.0/FeatureExtractor/MobilenetV1/strided_slice_1/stack_2", "shape": [1], "dtype": "int32"}, {"name": "scout-model-8.6.0/FeatureExtractor/MobilenetV1/zeros_3/packed/1", "shape": [], "dtype": "int32"}, {"name": "scout-model-8.6.0/FeatureExtractor/MobilenetV1/zeros_3/packed/2", "shape": [], "dtype": "int32"}, {"name": "scout-model-8.6.0/FeatureExtractor/MobilenetV1/zeros_3/packed/3", "shape": [], "dtype": "int32"}, {"name": "scout-model-8.6.0/FeatureExtractor/MobilenetV1/zeros_3/Const", "shape": [], "dtype": "float32"}, {"name": "scout-model-8.6.0/FeatureExtractor/MobilenetV1/concat_3/axis", "shape": [], "dtype": "int32"}, {"name": "scout-model-8.6.0/FeatureExtractor/MobilenetV1/strided_slice_2/stack", "shape": [1], "dtype": "int32"}, {"name": "scout-model-8.6.0/FeatureExtractor/MobilenetV1/strided_slice_2/stack_1", "shape": [1], "dtype": "int32"}, {"name": "scout-model-8.6.0/FeatureExtractor/MobilenetV1/strided_slice_2/stack_2", "shape": [1], "dtype": "int32"}, {"name": "scout-model-8.6.0/FeatureExtractor/MobilenetV1/zeros_5/packed/1", "shape": [], "dtype": "int32"}, {"name": "scout-model-8.6.0/FeatureExtractor/MobilenetV1/zeros_5/packed/2", "shape": [], "dtype": "int32"}, {"name": "scout-model-8.6.0/FeatureExtractor/MobilenetV1/zeros_5/packed/3", "shape": [], "dtype": "int32"}, {"name": "scout-model-8.6.0/FeatureExtractor/MobilenetV1/zeros_5/Const", "shape": [], "dtype": "float32"}, {"name": "scout-model-8.6.0/FeatureExtractor/MobilenetV1/concat_5/axis", "shape": [], "dtype": "int32"}, {"name": "scout-model-8.6.0/FeatureExtractor/MobilenetV1/strided_slice_3/stack", "shape": [1], "dtype": "int32"}, {"name": "scout-model-8.6.0/FeatureExtractor/MobilenetV1/strided_slice_3/stack_1", "shape": [1], "dtype": "int32"}, {"name": "scout-model-8.6.0/FeatureExtractor/MobilenetV1/strided_slice_3/stack_2", "shape": [1], "dtype": "int32"}, {"name": "scout-model-8.6.0/FeatureExtractor/MobilenetV1/zeros_7/packed/1", "shape": [], "dtype": "int32"}, {"name": "scout-model-8.6.0/FeatureExtractor/MobilenetV1/zeros_7/packed/2", "shape": [], "dtype": "int32"}, {"name": "scout-model-8.6.0/FeatureExtractor/MobilenetV1/zeros_7/packed/3", "shape": [], "dtype": "int32"}, {"name": "scout-model-8.6.0/FeatureExtractor/MobilenetV1/zeros_7/Const", "shape": [], "dtype": "float32"}, {"name": "scout-model-8.6.0/FeatureExtractor/MobilenetV1/concat_7/axis", "shape": [], "dtype": "int32"}, {"name": "scout-model-8.6.0/concat/axis", "shape": [], "dtype": "int32"}, {"name": "scout-model-8.6.0/concat_1/axis", "shape": [], "dtype": "int32"}, {"name": "scout-model-8.6.0/Postprocessor/Decode/transpose/sub_1", "shape": [2], "dtype": "int32"}, {"name": "scout-model-8.6.0/Postprocessor/Decode/get_center_coordinates_and_sizes/transpose/sub_1", "shape": [2], "dtype": "int32"}, {"name": "scout-model-8.6.0/Postprocessor/Decode/transpose_1/sub_1", "shape": [2], "dtype": "int32"}]}]}